fation_net_arc3_SGD.pth (torch, 548231 bytes, 10 tensors)

Conv2D_1.weight f4 [64, 1, 2, 2]
00000000: 6095 e73e 58ad 303e dc22 bbbe 2021 fc3e
00000010: 286b e0be 50da 38be c067 ba3e 88ce b5be
00000020: bcd9 7a3e 16a6 ee3e b072 273e 90cd e7be
00000030: 8a26 89be 48c5 4fbe 4483 12be 0ab0 80be
00000040: 4c72 363e 2863 f3be d015 d6be a257 a9be
00000050: 805e 4dbd b8d4 433e 8a6f aebe f8a0 2ebe
00000060: 20cf 0abe b6bd 84be 6a76 a6be 6853 7ebe
00000070: 244a 0c3e 1c60 293e 60d1 19be 609a 72be
00000080: c8c1 6c3e 9a8e ca3e 64d4 10be 08c1 3b3e
00000090: 8005 9d3d 84e0 573e 50b1 0abd 1a1d a23e
000000a0: 0001 97bd 5c67 65be e056 f23e e86e 203e
000000b0: a842 e83d bc78 abbe ae0c f8be 044b 19be
000000c0: 3cef 0c3e b0d7 63bd e0a1 fdbd a0a1 883e
000000d0: c092 413e 3232 e43e 568b 943e e00b afbe
000000e0: 80cd c7bb 54a2 7fbe e06b eabe 706e bb3d
000000f0: a00a bdbe e639 853e b876 643e 90a2 733d
00000100: 94cf 09be 20ec 5e3e 183f 33be 34f3 f2be
00000110: fa14 a13e 82a3 af3e 50e0 ee3d 0cd9 e33e
00000120: 0435 963e 20c5 48be 64ce 2e3e 50ec 9d3d
00000130: a28e d93e 145c e33e c08c b73e 4a53 ebbe
00000140: 0896 54be e060 043d b0fb 51bd d2d9 d93e
00000150: e0f1 e93c c087 aebc 8821 8c3d 6028 c23d
00000160: a471 763e 1028 9fbe 1693 ecbe fc21 cbbe
00000170: 2ae7 bfbe 003f 56bd 3271 a9be b0cc 63bd
00000180: 74c7 00be e0a0 aa3c 5ca0 0ebe 4c44 c1be
00000190: 56b9 e63e 0ed8 bbbe 8c38 5abe 1061 9c3e
000001a0: dca3 f5be 687b 793e 0edc ffbe d079 0dbd
000001b0: 30db 503d 9ace b13e 7ef8 da3e 4869 323e
000001c0: 5024 fc3d 309d 94bd 4ea8 fc3e 2058 71bd
000001d0: 8ce6 0fbe 5c22 3abe 3ebd c9be 8cdb 0dbe
000001e0: d0af 6d3d 0882 ddbe 506d 67be e0d1 2b3d
000001f0: e424 fc3e a493 8bbe 3c26 dabe 78cf b63e
00000200: 962a 9f3e 889a 0c3e 2034 743d 44cc 7bbe
00000210: 00fd 7b3d c0f1 0abc c6af fa3e 604e 933e
00000220: 24f3 bdbe 6066 b6bc 50f5 babd d0d0 31be
00000230: 8c95 81be 9ef2 f7be 2430 a43e 7a0b 94be
00000240: 98df d9bd 8802 e1be 90d2 7bbe 942d 6cbe
00000250: 1887 95be 906a dc3e 70dc 3a3d a0f2 3a3e
00000260: 8cdd 49be 0422 503e 448a dfbe 3c75 27be
00000270: f4de 88be ece4 283e 008b c3bd a089 0a3d
00000280: 90ef cf3d 7448 7cbe 927f e93e cc6c bb3e
00000290: a009 b43d b8ec d0bd 288f 5a3e b026 973d
000002a0: 54ae 06be 4ae8 9ebe 2083 4cbe 9260 a2be
000002b0: 78b4 6c3e 70e0 1cbd 5ada fd3e 9480 17be
000002c0: f42a 373e e8a8 1b3e 8e03 f03e 0612 f1be
000002d0: 68fc 9fbe b46f f73e 6af2 bebe 3607 c2be
000002e0: 4467 55be 62dc ed3e a61a 9f3e f8d3 e9be
000002f0: b065 0c3e b08b 39bd 1025 34bd 9ca7 e1be
00000300: 2003 a33d feac 9e3e 4052 173e 74a7 163e
00000310: 0054 16ba c424 0b3e 44f7 09be 7c84 e1be
00000320: 00fe 9dbe 7a82 fd3e 92ad fcbe 6ee8 f0be
00000330: 6054 36be 044a eebe dc16 c4be 5012 d43e
00000340: 1c95 e13e 5c5c 393e 1ce5 87be c0da b53c
00000350: c098 c7bd 9804 76be e2cc d4be 4c69 843e
00000360: 88ba 7dbe 58e6 0ebe 3805 dfbd f62a e53e
00000370: 0c8a c13e 88ec 623e 7011 cb3e 009f f93d
00000380: 6cec 1cbe 5ade bfbe 383f 8abd 4aae db3e
00000390: ac88 78be 9ec8 b2be 205f fd3e c2e6 d7be
000003a0: a0d4 b3bd 7cb0 733e b0e2 533d 0036 1cbb
000003b0: 62eb bcbe 5490 6c3e d0d9 073d 1471 b03e
000003c0: a0ea 553d d6d3 9a3e 7a53 bcbe 407a 4bbe
000003d0: cacc b13e 582d a7bd e0a7 8dbc d4d4 9b3e
000003e0: 8c19 123e 6846 5abe 9e74 d4be b415 6f3e
000003f0: 8c82 753e b4b2 c7be 7870 c83e 5adf c93e
0.45231152 0.17253625 -0.36550033 0.49244022 -0.43831754 -0.1805203 0.3640728 -0.35509133
0.24497122 0.4661109 0.16352344 -0.4527402 -0.26787215 -0.202901 -0.14307886 -0.25134307
0.17817038 -0.47536588 -0.41813517 -0.3307467 -0.05013895 0.19124115 -0.34069473 -0.17053592
-0.13555574 -0.25925988 -0.32512218 -0.24836504 0.13700157 0.16540569 -0.15021276 -0.23691702
0.23120797 0.3956192 -0.1414352 0.18335354 0.07667065 0.2108174 -0.033860505 0.31662828
-0.073732376 -0.2240271 0.47331905 0.15667307 0.11340839 -0.3349055 -0.48447174 -0.14970022
0.13763136 -0.055625618 -0.12384391 0.2668581 0.18903637 0.44569546 0.29012555 -0.34188747
-0.0060974956 -0.24964267 -0.45785427 0.09151924 -0.3692217 0.26020736 0.22310913 0.059481204
-0.13458091 0.21769762 -0.17504537 -0.47451174 0.31461316 0.34304434 0.11663878 0.4450153
0.29337323 -0.19606447 0.1707092 0.07711089 0.42491633 0.44406188 0.3584957 -0.45961982
-0.20760357 0.03231895 -0.05126542 0.42548996 0.028557718 -0.021304965 0.06842333 0.09480357
0.24066788 -0.31085253 -0.46205968 -0.39674366 -0.37481052 -0.052306175 -0.33094174 -0.055615127
-0.12576085 0.020828664 -0.1392836 -0.3774742 0.45063275 -0.36688274 -0.21310633 0.30542803
-0.47976577 0.24363482 -0.49972576 -0.034539998 0.050990283 0.34727937 0.4276771 0.17422974
0.123116136 -0.07256544 0.49347156 -0.058921933 -0.1405279 -0.1817717 -0.39402193 -0.13853282
0.058028996 -0.43263268 -0.22600293 0.0419482 0.49246895 -0.27261078 -0.42607296 0.3570516
0.31087178 0.13730824 0.059620023 -0.2458964 0.061520576 -0.008480489 0.4896223 0.28770733
-0.37099564 -0.022265613 -0.09128821 -0.17364812 -0.25309408 -0.4842729 0.32067978 -0.28915006
-0.1063835 -0.43947244 -0.24592042 -0.23064262 -0.2920463 0.4305005 0.04562038 0.18256617
-0.1971342 0.20325476 -0.43660176 -0.16353315 -0.267326 0.16493577 -0.095479965 0.033822656
0.10153115 -0.24637014 0.4560514 0.36606443 0.08790898 -0.102014005 0.21343672 0.07380426
-0.13152438 -0.31036597 -0.19971895 -0.31714302 0.23115718 -0.038299978 0.49580652 -0.14795142
0.17887479 0.15201151 0.46877712 -0.47084063 -0.31247258 0.4832741 -0.37294322 -0.37896127
-0.20840174 0.464572 0.3107502 -0.45669532 0.13710666 -0.045299232 -0.043980658 -0.44073188
0.079595804 0.30991358 0.1477747 0.14712316 -0.0005734563 0.13588244 -0.1347323 -0.4404639
-0.3085785 0.49513608 -0.49351174 -0.4705233 -0.17805624 -0.46540844 -0.3829869 0.4142022
0.44059074 0.18101639 -0.26541984 0.022199035 -0.097459316 -0.2402519 -0.41562563 0.25861585
-0.24778187 -0.13955057 -0.10889667 0.4475934 0.37800634 0.22160542 0.3966174 0.1218853
-0.15324563 -0.37474328 -0.06750339 0.4290641 -0.24270886 -0.34918684 0.49486637 -0.42168242
-0.087807894 0.23797792 0.051729858 -0.0023835897 -0.36898333 0.23101932 0.033166707 0.34461272
0.05222571 0.30239743 -0.36782438 -0.19870853 0.34726554 -0.081629455 -0.017291963 0.30435812
0.14267558 -0.2131592 -0.41495222 0.23348123 0.23975581 -0.39003527 0.39148307 0.39428216

Conv2D_1.bias f4 [64]
00000000: d8f7 64be c481 8dbe 6051 01be ce36 e4be
00000010: 58df b8be 8631 923e 8084 c63c ae6a d5be
00000020: 7609 923e 504a c4be c0bd b1bc 44cb f63e
00000030: 1212 b4be f85c c1be 1e3e f7be 2061 353d
00000040: 78bd bcbd f0da 27be 24e2 443e 585b 90be
00000050: e8e0 773e a2c1 a1be e8c1 a8be 1871 fdbd
00000060: 2661 c9be 00d4 993e 5041 71bd 6c46 df3e
00000070: 5e13 893e 18ce b8be c035 f0bd f075 eabe
00000080: 8a79 a3be 08a5 293e e424 6e3e e006 94bd
00000090: ea6a ed3e f8d5 2d3e f01f d5be fe26 9cbe
000000a0: 343f 7f3e 94f1 edbe b2b0 a93e 506c e03e
000000b0: f412 aabe cad1 a93e 6043 9dbd e85f 8f3e
000000c0: d2d2 d93e 0076 90bd 982b b13d 608b b73e
000000d0: 78ae fabe 60c7 323e e01e d73d 40da 86bc
000000e0: 38db a3be 0898 b03e ba21 82be fc4e f9be
000000f0: 207e 173e 8032 b03c d000 1bbe 4029 92bc
-0.2236017 -0.27638066 -0.12628698 -0.44573063 -0.36107898 0.28553408 0.024233103 -0.41682953
0.28522843 -0.38337946 -0.021696925 0.48201954 -0.35170037 -0.37766242 -0.4828958 0.04428208
-0.09215826 -0.16392112 0.19226891 -0.2819469 0.24206889 -0.31593043 -0.3296044 -0.123750865
-0.3933193 0.30044556 -0.058900177 0.43608415 0.26772588 -0.36094737 -0.11729002 -0.45793104
-0.31928664 0.1656686 0.2325626 -0.07227874 0.4637063 0.16976154 -0.4162593 -0.304985
0.24926454 -0.46473372 0.3314262 0.43832636 -0.33217585 0.3316787 -0.076788664 0.28002858
0.42543656 -0.07053757 0.08650893 0.35848522 -0.48961234 0.17458868 0.10503936 -0.016461492
-0.32003188 0.3449099 -0.25416356 -0.48693073 0.14794207 0.021508455 -0.15137029 -0.017841935

Conv2D_2.weight f4 [64, 64, 2, 2]
00000000: f63d 453d 764c 01bd 061e 613d 3cc7 88bc
00000010: 0857 fbbc 2cb1 af3c 3021 1d3d d814 75bc
00000020: 80d0 613a 4074 edba 9c1a be3c fa95 45bd
00000030: 0ce7 ab3c 0a47 04bd 721a 093d 9024 11bc
00000040: 60bd e9bc 484d 2e3d 10f3 3abc 489d 3a3d
00000050: 2419 a2bc cc7e 4cbd 96f4 203d baad 78bd
00000060: 00ce 1f3d 800c 2cbb aed6 563d 9838 0ebd
00000070: 54ea f1bc b0c1 5dbc f0fc 8dbb 608a 0a3b
00000080: f0f2 363c 9c34 3bbd 5a6d 4a3d ac99 6cbd
00000090: e84d 1abd e091 24bc 96b9 7e3d 1272 4a3d
000000a0: a05f 34bd ac21 abbc 1e01 29bd 5448 433d
000000b0: a034 543b 90b9 e5bb 7c2b 7d3d 1c60 14bd
000000c0: 9021 d73b 000d c5b9 fcf2 23bd e026 0a3c
000000d0: 6ce2 1d3d 2852 f6bc 4040 573b 20aa 603d
000000e0: 867c 35bd b856 31bd 2893 4a3d 7059 0c3c
000000f0: c615 22bd c8f6 2dbd 402c eebc d065 613c
00000100: 3e4f 4b3d 10d6 7e3c 6885 173c 6c73 d2bc
00000110: d8ec 8ebc 52e7 12bd 1094 efbb bcfa 843c
00000120: 7840 783c 848b 9ebc ec4b 8d3c 380b 0fbc
00000130: a005 533d d619 2a3d bc58 8abc ea42 4d3d
00000140: 5c01 36bd 94bc 41bd 34a3 ff3c 14ed 5b3d
00000150: 48f9 153d e057 42bd f40d 0d3d c078 943b
00000160: c85d a23c ea7b 30bd 2035 513d 345c 09bd
00000170: a00e 463d 3029 a23b b8a2 333d 8aa4 573d
00000180: 1879 85bc 5c29 693d 84e8 473d 6edf 7bbd
00000190: 8cd7 ddbc 40b1 53bd f863 e83c 50df f03c
000001a0: 9ade 21bd 1aa4 62bd 7863 79bd c8be d73c
000001b0: 7a85 68bd f0b5 e4bb 72b0 783d 3889 ad3c
000001c0: 78d0 9ebc 483f adbc 40ab deba c024 aa3a
000001d0: aae8 41bd 9474 fd37 cadc 353d f836 563c
000001e0: 1087 d73c 8822 6f3c 2636 6fbd b42b 9fbc
000001f0: 8859 5736 5c05 aabc 286d 0abc b813 3ebd
00000200: 3ec4 2abd 060c 663d 3e0d 1cbd d235 20bd
00000210: d033 e7bc 7438 48bd 44bd ac3c 9016 d8bb
00000220: 2036 7bbb d42b 1d3d 3811 733c 2223 2e3d
00000230: 0838 913c 304f 91bb b80e 213c 3255 6a3d
00000240: 52c2 1bbd 7ab8 4e3d 2c0e 343d c0db f3bc
00000250: 041d 03bd 80b9 913b 149d e03c 2076 9d3b
00000260: 4018 7e3d 7a17 1fbd 800a 54ba 8432 5c3d
00000270: 8e61 01bd b0cf 8ebb 8a56 663d 406c 463c
00000280: 9e61 2bbd bea8 28bd 1080 45bc c80b 67bd
00000290: c8ba 5abc 2859 7d3d 58d4 4bbc 4c16 6e3d
000002a0: e67f 593d dc5d a0bc dafc 623d c8d2 06bc
000002b0: 0224 01bd dc6c c53c 6093 18bd 8aa0 2a3d
000002c0: 5482 083d bcdb 3c3d 0eb1 3fbd de7c 73bd
000002d0: 6052 843b 88f8 263d 2c68 763d 3071 823c
000002e0: b079 093c 9ec7 49bd c47b 1d3d 1c6a 24bd
000002f0: a4c5 733d 86f9 15bd 7663 65bd c4ca a63c
00000300: 96b6 49bd 7057 493c 2c64 343d 308a 333d
00000310: 105b f93b 1875 cdbc 2886 2cbd 70a4 e93c
00000320: 7a5e 643d a09f 7f3c 3e1f 64bd 703f 8d3c
00000330: e83b 893c fa11 39bd 109a c8bb 805e d43a
00000340: 98b5 c4bc f8da 293c ec22 7bbd fcda ea3c
00000350: aa39 3bbd c88d e13c 60a0 63bc 283b 0c3c
00000360: def3 333d a0ad 703b 5ee3 4bbd c080 acbb
00000370: d8e5 573c c8c4 623c f8fc f83c c840 00bd
00000380: f8ce d9bc ceab 043d fcfa 8b3c 3866 6d3d
00000390: 200c 38bb 8204 f138 da57 0a3d 9e45 37bd
000003a0: 6424 7cbd d006 563d f8c8 d1bc c80e 3dbc
000003b0: d42a 873c 38c9 0f3d d868 283d 36d0 5a3d
000003c0: c295 42bd 62e7 513d 06c5 3cbd 7a48 393d
000003d0: 3068 9dbc eabc 723d fa56 6dbd 2061 053b
000003e0: 64c0 d0bc ecec 943c 50a6 34bc 3ed9 22bd
000003f0: 909b 5dbc b85e 86bc 7e18 693d 1cc9 c6bc
0.048154794 -0.03156706 0.054960273 -0.016696565 -0.030681148 0.021446787 0.03836173 -0.014958583
0.0008614138 -0.001811631 0.023206048 -0.048238732 0.020984195 -0.03229431 0.033472486 -0.008858815
-0.028532684 0.04255417 -0.01141049 0.04556015 -0.019787379 -0.04992561 0.039295755 -0.060712554
0.039014816 -0.0026252568 0.05245083 -0.03472194 -0.029530682 -0.013534948 -0.004333131 0.0021139607
0.011166319 -0.04570447 0.049420692 -0.05776374 -0.037671953 -0.010044545 0.062188707 0.049425192
-0.044036508 -0.02089008 -0.04126083 0.0476764 0.003238 -0.007010646 0.061809048 -0.03622447
0.0065652803 -0.00037584454 -0.04002665 0.00843212 0.03854601 -0.030068472 0.0032844692 0.054849744
-0.044308208 -0.043295592 0.049456745 0.008566245 -0.039571546 -0.042471677 -0.029073834 0.013757184
0.049636118 0.015553966 0.009248115 -0.025689803 -0.01744692 -0.035865135 -0.0073113516 0.01623284
0.015152089 -0.019353636 0.017248116 -0.008730702 0.051519036 0.041528545 -0.016888015 0.050112642
-0.04443489 -0.047298983 0.031205751 0.053692892 0.036614686 -0.047447085 0.034437135 0.004530996
0.019820109 -0.043086924 0.051076055 -0.033535197 0.04835379 0.0049487576 0.043856353 0.05264715
-0.016293094 0.05692421 0.04880573 -0.061492376 -0.02708032 -0.05168271 0.028367981 0.029403359
-0.03951893 -0.05533228 -0.060885876 0.026336089 -0.05676792 -0.0069796965 0.060715146 0.021183595
-0.019386515 -0.021148339 -0.0016988292 0.0012980923 -0.047341026 3.0214236e-05 0.044400014 0.013074629
0.02630952 0.014595635 -0.05840125 -0.019430019 3.208961e-06 -0.020754509 -0.008448876 -0.046405524
-0.041691057 0.05616381 -0.038098566 -0.039113827 -0.028222948 -0.048881963 0.021086343 -0.0065944865
-0.0038331822 0.038371876 0.014835648 0.042513974 0.017726913 -0.0044344887 0.009830169 0.057210155
-0.038027115 0.0504689 0.043958828 -0.02976787 -0.032010093 0.004447162 0.02741865 0.0048053414
0.062034845 -0.03884075 -0.0008088723 0.053759113 -0.031587176 -0.0043582544 0.056234874 0.01211077
-0.041841142 -0.04117655 -0.012054458 -0.05640772 -0.013350196 0.061852604 -0.012440763 0.058126733
0.05310049 -0.019576006 0.05541692 -0.008228965 -0.03152848 0.02409976 -0.037249923 0.04165701
0.033327416 0.046107993 -0.046799712 -0.059445255 0.00403814 0.04076436 0.06015794 0.015923113
0.008390829 -0.049262635 0.03844811 -0.040140256 0.059514657 -0.036614917 -0.056003056 0.020360358
-0.049246393 0.012288913 0.044040844 0.043832958 0.0076097324 -0.025080249 -0.04212013 0.028520793
0.055754162 0.015602022 -0.055693857 0.017242163 0.016752198 -0.04518316 -0.0061218813 0.001620248
-0.024012372 0.010367148 -0.0613126 0.028668873 -0.04570929 0.027533427 -0.013893217 0.008559026
0.04393374 0.0036724582 -0.04977738 -0.0052643716 0.013177358 0.013840862 0.030394062 -0.03131178
-0.026587948 0.03239041 0.017087452 0.05795881 -0.00280834 0.00011492615 0.033775188 -0.044744126
-0.061558142 0.05225259 -0.025608525 -0.011539169 0.016499914 0.035104007 0.04111561 0.05342122
-0.0475061 0.051246054 -0.046086334 0.045235135 -0.01921472 0.059262194 -0.057944275 0.002035208
-0.025482364 0.01817938 -0.01102598 -0.03975796 -0.0135258585 -0.016402587 0.056908123 -0.024265818

Conv2D_2.bias f4 [64]
00000000: 0c75 683d 98f7 57bc a002 b7bb 300f de3c
00000010: 0c70 f8bc d8f6 3d3d 109a c13b 102b 333d
00000020: 80af bdbb f201 7f3d 8c80 c9bc ecca 563d
00000030: a00b c63c ca92 22bd 0cf6 7ebd 18ba 653d
00000040: f815 9abc f64e 37bd 1056 41bc 54cb a03c
00000050: a86d a43c ce1e 29bd 8e16 2e3d 7c93 8b3c
00000060: 5e5e 2e3d 0031 ffbc 666c 47bd 96b2 393d
00000070: b849 6fbd eaf5 42bd a473 6f3d 4c07 5c3d
00000080: d828 f33c 0c34 42bd 0ce8 e83c 84bc b4bc
00000090: d8f0 1e3d b4a3 35bd b02b 693d b01e e13c
000000a0: 8a99 4d3d 42f5 503d 40ba 7c3d 867e 2f3d
000000b0: d093 843c 10cc f0bc 285b 203c 0c88 f9bc
000000c0: d636 373d 4ca0 003d 5015 35bd 92dc 173d
000000d0: 16de 363d 9cc9 8ebc 4e07 653d 70e9 b5bb
000000e0: 480f 0cbc e037 3e3d 8007 23bc d489 0d3d
000000f0: c8df 353d bcc8 b8bc 2454 18bd de7b 26bd
0.05675225 -0.01318159 -0.0055850297 0.027106851 -0.030326866 0.046377987 0.0059082583 0.04374224
-0.0057887435 0.062257715 -0.024597429 0.052439615 0.024175465 -0.03969077 -0.062246367 0.056085676
-0.018809304 -0.044753037 -0.011800304 0.019628204 0.02007182 -0.041289143 0.04250198 0.0170381
0.042570464 -0.031151295 -0.04868736 0.04533633 -0.058419913 -0.047597803 0.058459893 0.053717896
0.029682562 -0.047412917 0.028430961 -0.022062548 0.038803905 -0.044345573 0.05692643 0.027480453
0.050195254 0.051015146 0.06170106 0.04284527 0.016183764 -0.02939418 0.009787358 -0.03046038
0.04473003 0.03140287 -0.04420978 0.037075587 0.04464539 -0.01743012 0.05591517 -0.0055515096
-0.008548565 0.046440005 -0.009950519 0.03455527 0.044402868 -0.022556655 -0.037189618 -0.040645473

Conv2D_3.weight f4 [64, 64, 2, 2]
00000000: 2a5f ed3a 2856 b5bc 24ec 42bd 9ac5 5cbd
00000010: d469 833c 80df 2ebc ac41 133d b418 07bd
00000020: 5e10 0fbd 1643 7b3d a47d fd3c 8869 94bc
00000030: 4cea 36bb 2ca4 a83c 466e 38bd 3219 1dbd
00000040: 0c77 de3c b879 123d 0861 5dbd 78c1 0bbd
00000050: 64f6 a1ba 2802 3b3c 1e10 78bd b052 f93c
00000060: b094 3c3b a0d6 63bd bc48 a1bc a08e efbc
00000070: 332f d9bb f01e b03c 7589 373b 286d 13bc
00000080: 74e2 dd3c 94df e9bc 60cb 5fbd 2801 06bc
00000090: 067d 7c3d f41b 223d 149b fbbc 3449 a0bc
000000a0: ce83 00bd 200e 45bd 7497 3d3d 4ab3 73bd
000000b0: 7832 d8bc d23c 52bd e0fb 07bc 50cc 5cbc
000000c0: 182b ecbc a07b 283d daac 1c3d ac57 25bd
000000d0: 849b e03c 9c87 523d 2e2a 483d b649 5b3d
000000e0: 70a2 26bd 7cce 573d 2250 19bd 48a0 6ebc
000000f0: 1f48 973b 8a74 1e3d f0cf 123a 3812 eb3c
00000100: a870 ccbc 144a e03c 6cc2 3e3d 6f39 81bb
00000110: e6ea 0e3d c0c4 033c e43f 3fbd c405 bfbc
00000120: 6891 6b3c bc1f c5bc 04bc fcbc ee30 48bd
00000130: c086 0a3d e0f4 c8bc 806d 7cbd a4b0 ef3c
00000140: ba73 f33a b8bc cc3c 3095 a6bc 2e43 e63b
00000150: 5e44 083d be5e 793d b1b5 cbbb c46b 2cbd
00000160: f48f b7bc 088c 32bc e8b6 04bc cf65 89b9
00000170: 6cd9 56bd ce32 12bd 0061 64bd c4a2 fe3c
00000180: 886a 38bc c2b7 333d 1f12 b63a 163b bc3a
00000190: 0a75 653b f4eb a8bb bb91 e5bb 3ec9 2f3d
000001a0: e4f9 f5bc e018 7a3c 149b 59bd c435 50bd
000001b0: 30c5 20bd d0da c73c 3ebd 11bd 70cf 81bc
000001c0: dc7c 393d 18b4 223c 6252 023d 88dc b7bb
000001d0: 4809 4d3d acff 21bd 321e 463d 7e98 01bd
000001e0: 6e3d 30bd dc69 833c cad2 6fbd e8f2 6a3d
000001f0: bca5 943c c0fb 473d 52e8 9fbb 72a7 613d
00000200: 84f9 b83c 4018 5a3c c82c 62bc 40ca e0bc
00000210: 9a7f 263d c021 473d fc9b 463d 38fb 3c3c
00000220: a429 81bc 0034 debc 3ec9 6c3d b8ed d93c
00000230: 50c9 a3bb 8090 f23c 405c 573d 54db 243d
00000240: a8f2 70bd 7019 cdbc 6676 743d aef6 293d
00000250: e06e 76bc 684d 633c ca03 093d 4ece c43b
00000260: 0393 1bbb 8aba 35bd 7a55 203a ee6f 223d
00000270: e8d4 28bd 9c07 83bc c884 ee3c 8ab4 4c3d
00000280: fe0b ccb9 c688 4d3d b2e6 02bb 20dd 023c
00000290: b84d 933c ae75 623d ee9b c1bb 9659 663d
000002a0: b2f3 6d3d 78cf fe3c 2c6f 59bb 8889 35bd
000002b0: 6472 06bd c873 b7bc 581f 69bc e0bf 65bd
000002c0: 4087 643d ca05 55bd a081 8a3b 6863 dd3c
000002d0: 08b7 dbbc f850 17bc 9428 713d 50a1 39bc
000002e0: b8f1 77bc 6ae7 383b 8ece 683d beb3 71bd
000002f0: 9076 353c 1614 2ebd 7e97 d23b 4cf6 8b3c
00000300: 200c 973c 543d f6bc 906d 6dbd 9e2e 3fbd
00000310: 425e 3abd be0b 2d3d a0ef 7a3c a8ec 4f3d
00000320: fc5d d0bc 8087 1abd aa7d 29bd b454 eb3c
00000330: 2ce2 163d 4a48 4e3d b09c d93c d040 cfbc
00000340: b408 2abd ae41 11bd e054 81bc acbb 953c
00000350: 1a74 233d d037 d43c 28e0 33bd 908f 393d
00000360: b8af 113d f0a4 713c 28f0 f53c 0857 00bc
00000370: 01ef e3bb 88e1 13bc f4c6 e53c fc5a 8f3c
00000380: c003 433c 014e 10bb 1a88 413d 727b 5b3d
00000390: 22b1 783d 12c0 513d 20e9 e83c 767f 06bd
000003a0: 388e ddbc a420 6b3d 7c31 01bd 31a4 bebb
000003b0: bee9 15bd 30de 5abd 1ac0 2e3b d693 10bd
000003c0: 0cb2 3f3d fa86 043d f8f6 07bc b0eb cb3c
000003d0: 9854 813c 502a 02bd f0f9 803a c227 7abd
000003e0: eca8 1abb ecfe c3bc 94a4 27bd 045d 213d
000003f0: 84d5 863c a46f 523d 5edb 63bd 2001 9f3c
0.0018110026 -0.022135809 -0.047588482 -0.053899385 0.016041674 -0.010673404 0.0359513 -0.032982543
-0.03492772 0.061343275 0.0309437 -0.018116727 -0.0027910648 0.020586096 -0.04502704 -0.038354106
0.027156375 0.03576061 -0.054047614 -0.034120053 -0.0012356755 0.011414088 -0.060562246 0.030434936
0.0028775148 -0.055624604 -0.019688003 -0.029242814 -0.006627941 0.021499127 0.0028005515 -0.008998193
0.02708552 -0.028548993 -0.054637313 -0.008178987 0.06164267 0.03957744 -0.030713595 -0.019566156
-0.0313757 -0.048109174 0.046287015 -0.059497155 -0.026391253 -0.051327534 -0.008299798 -0.013476446
-0.028829142 0.041133523 0.03825078 -0.040366814 0.027417906 0.05139886 0.04886835 0.053537093
-0.040682256 0.052687153 -0.037429936 -0.014564581 0.004616752 0.03868536 0.0005600443 0.02869521
-0.024956062 0.027379073 0.046572134 -0.003943614 0.034891985 0.008042514 -0.04669179 -0.023318179
0.014377929 -0.024062984 -0.030851372 -0.048874788 0.033819914 -0.024530828 -0.061627865 0.029259034
0.0018573918 0.024992332 -0.02033481 0.0070270514 0.033268325 0.06088137 -0.0062167277 -0.04209496
-0.02240751 -0.010897644 -0.008100249 -0.0002620653 -0.052453443 -0.035692982 -0.05575657 0.031083472
-0.011255868 0.043876417 0.0013890899 0.0014360871 0.0035012388 -0.005155081 -0.007005898 0.04291653
-0.030026384 0.01526472 -0.05312641 -0.050832525 -0.039250553 0.02439633 -0.035580866 -0.015845984
0.04528509 0.009930633 0.031816848 -0.005611006 0.05005768 -0.03955047 0.04836864 -0.03163957
-0.043027334 0.016041689 -0.058550633 0.05736056 0.018145435 0.048824072 -0.0048799897 0.05509133
0.022579916 0.013311446 -0.013804622 -0.02744019 0.040649034 0.04861617 0.048488602 0.011534505
-0.015766926 -0.027124405 0.057809107 0.026602611 -0.0049983636 0.029609919 0.05257821 0.04024823
-0.058825165 -0.025036544 0.059683226 0.041495018 -0.015041083 0.013873436 0.03345088 0.0060060387
-0.002373875 -0.04436735 0.00061162526 0.039657526 -0.04121867 -0.01599484 0.02911605 0.049976863
-0.00038918847 0.050179265 -0.001997393 0.007987291 0.017981395 0.05528801 -0.005908481 0.05623778
0.058093734 0.031104788 -0.0033177836 -0.044320613 -0.032823935 -0.022394076 -0.014228664 -0.05609119
0.055793047 -0.052007474 0.0042268783 0.02702494 -0.026820675 -0.009235613 0.05887659 -0.011329964
-0.015133314 0.0028214105 0.05683761 -0.059009306 0.011075631 -0.042499624 0.0064267507 0.017085217
0.018438399 -0.03005854 -0.057965815 -0.046675317 -0.045500048 0.042247526 0.01531592 0.050762802
-0.02543544 -0.03772688 -0.04137961 0.028726913 0.036836788 0.05036191 0.026563972 -0.02529946
-0.041512206 -0.035463028 -0.015787542 0.018277965 0.039905645 0.02590552 -0.043914944 0.045302927
0.03556797 0.014748797 0.030021742 -0.00783325 -0.0069559817 -0.009025939 0.02804897 0.01749944
0.01190275 -0.002201915 0.047248937 0.053584523 0.060715802 0.051208563 0.028431475 -0.0328364
-0.027045354 0.057404175 -0.031541333 -0.005817913 -0.036599867 -0.05343455 0.0026664794 -0.035297237
0.046800658 0.032355286 -0.008298628 0.024892658 0.015787408 -0.031778634 0.0009840112 -0.061073072
-0.002359922 -0.023925267 -0.04092844 0.039395347 0.016459234 0.051376 -0.055629127 0.019409716

Conv2D_3.bias f4 [64]
00000000: 9050 06bd 70a9 53bc 0054 5dbb f4b4 743d
00000010: d073 e83c b44e 4abd 984c 45bd 98fc 67bd
00000020: 7895 d63c 400b b03a 006b 873c f262 45bd
00000030: f68e 2d3d 1471 b5bc 70e2 e3bc 6066 fe3c
00000040: 3a0f 0f3d a0a8 9a3c 80d3 8c3b dcbe 8c3c
00000050: 58b7 613c 00ec 02ba 3838 0e3d 00e0 a038
00000060: 50a3 f23c 8690 4cbd 10b6 15bd a4e6 bfbc
00000070: d078 91bc c4e4 5e3d ca18 5b3d 780d afbc
00000080: fa85 4d3d 847d 3abd aeab 6dbd 988c 0b3d
00000090: 86dd 71bd 2864 6c3c 1478 54bd 94ef b93c
000000a0: f6a4 38bd 60e3 7bbd 3efc 7bbd 5440 b0bc
000000b0: 7cdd 09bd 5ae8 08bd 64d5 363d dc62 44bd
000000c0: d612 1f3d c83c 77bd 1087 53bc 9cff 38bd
000000d0: 7422 ac3c 44ca 84bc e8da d3bc 9c6a bd3c
000000e0: 5cb1 7bbd d433 643d 78a8 b6bc 20dd 003b
000000f0: 364f 59bd e86a 95bc 2e42 4e3d e6b4 633d
-0.032791674 -0.012918815 -0.0033771992 0.059742883 0.028375536 -0.049391463 -0.04816875 -0.056637377
0.02619432 0.0013431087 0.016530514 -0.048190065 0.042372666 -0.022148646 -0.027817935 0.031054676
0.03492663 0.018879235 0.0042976737 0.017180853 0.013776623 -0.0004994273 0.034721583 7.671118e-05
0.02961889 -0.049942516 -0.03655058 -0.023425408 -0.017757803 0.054417387 0.053490438 -0.021368727
0.050176598 -0.045529857 -0.058025055 0.034069628 -0.05904915 0.014428176 -0.051872328 0.022697248
-0.045079194 -0.06149614 -0.061519854 -0.021515049 -0.03365849 -0.033424713 0.0446371 -0.047945842
0.038836323 -0.0603607 -0.012910619 -0.045165643 0.021012522 -0.016209729 -0.025861219 0.023122124
-0.06144844 0.05571349 -0.022297129 0.001966305 -0.053054057 -0.018239453 0.050356083 0.05559244

hidden_neurons.weight f4 [64, 1600]
00000000: 7ac9 323c f64d e1bb 4495 ef3b 6391 153c
00000010: e84e 343c 1c19 9f3b 7b03 46bc 56a2 c8bc
00000020: e312 5d3b 42e0 683b e946 38bc 007c a63c
00000030: 405f dfba efbc 3b3c e457 34bc 9d02 c9bc
00000040: 8149 57bc 5e4a 69bc b0a9 8eba ec1c 24bc
00000050: 5d44 dfbb ed38 933c d5ae 203c 7e91 16bc
00000060: e8d5 97bc 44e5 4c3c 8389 96bb 2dfa 653c
00000070: 4754 083c 4768 033c 0f1b c43c a798 893c
00000080: 40a4 2abc 3070 e43b b2e9 7dbc 9bb4 cbbb
00000090: 023b c8bc 3b98 b3bc 5d3b b63c 6ff5 8abb
000000a0: 8fd3 443b e9e8 37bc 68f6 c53c 6ba0 afbc
000000b0: 6551 cb39 0c9e b3bc 4297 99bc 0261 b4bc
000000c0: 63ad 83bc a420 9a3c 1036 6c3b 4e17 303c
000000d0: 05f2 c6bc cdb7 91bc 186c c63c 1a2e 803b
000000e0: f885 0b3c 34f5 bebc 7767 8c3c 734b c6bc
000000f0: ffde 0d3c bbb4 96bb 35ec 983c 6529 26bc
00000100: 6651 033b 8821 ca3c e122 5e3c 154b 98bb
00000110: c802 313b c335 aa3c eed6 cc3b 3b96 c6bc
00000120: f907 153c 0d38 243c 3163 df3a 7def b43c
00000130: 6956 ba3c dc5e a23b 0707 063c e6ab 8cbb
00000140: 5fdf ca3c 319d a1bc 7da3 87bc 3e81 49bc
00000150: eb7b bd3c 7189 873b 7b09 1ebc 7890 d7ba
00000160: b099 623b 906a 8bbc 40f2 21bc 7d91 5f3c
00000170: 149c 83bb 413c af3a dd9e 21bb f0f8 c3bc
00000180: 085e 8cbb 517c a83c 0be3 b8bc 79e1 a33c
00000190: 3e49 b33c a7ea 5ebc 725f e03b 3966 a6bc
000001a0: c005 a63c ad1a aa3c 59c5 8fbc 928d 473c
000001b0: 840a 743c eae8 403c 780c 3bbb 0280 ad3c
000001c0: 9bef c6bb c0b3 8b3c cea3 c03c dae2 693b
000001d0: 5312 96bc 3553 90bc 32ce 533c a894 51b8
000001e0: 2a82 893c f9e0 853c 2294 79bc 2731 2dba
000001f0: 1a75 fbba cb2c cbbc b86a 9abc 238e 4bbc
00000200: 8226 34bc 0f22 29bc 1256 a4bc 6636 d73b
00000210: 7b97 2a3c 3e68 353c f0fc 323c 0644 563c
00000220: f6b5 3e3c f93f 2bbb e4b4 34bc d3ed d4bb
00000230: df9b 1c3c 4afc 593c ddac c8bb 82da b7bc
00000240: 7a16 3ebc 5ee6 533c a7b0 4b3c 6262 bc3c
00000250: 4358 babc 76e2 60bb 4c60 b9bc 97a6 c13c
00000260: 8ea0 f23b d96d 4e3c 3b42 273c 3d6d 3ebb
00000270: 76d6 84bc 386b b23b 7db4 aa3c 58bc 1d3c
00000280: 0cd8 99bb 7c6e 1d3b b858 35bc 6835 433c
00000290: e3b6 a4bc d212 a93c 20e7 bf3b 6f4f bb3c
000002a0: 9be5 32bb b848 35bc 3cdd 73bc 0d00 ac3b
000002b0: 89b4 973c 181f b1bb b6b7 9dbc 3da3 be3c
000002c0: 0ae9 a6bc 6744 c4bc c7d9 26bc a120 44bc
000002d0: 37c5 443c f144 843b 6895 c53b 53e7 f6bb
000002e0: 4d7e 113c 5d72 7d3c 9de7 25bc 8e88 8abc
000002f0: 5918 9c3c 1396 f339 45c1 9eba 87f5 3bbc
00000300: 42b3 123b fd88 943c c931 c5ba e99f a2ba
00000310: 2996 36bb 93a5 20bc 55ca 523b 240c c73c
00000320: 9a23 6fbc cec3 023c c8a6 1e3c e488 b13c
00000330: 087b 7c3c d8f6 963c 2643 52bb e5e1 cbbc
00000340: 5a70 91bc 21b7 563b 8b37 8c3a 24a1 5dbb
00000350: 9507 c13b 27a4 81bc a612 95b9 d0bb bb3c
00000360: e0e7 f1bb 7ab3 f93a 3a56 8a3c ec27 21bc
00000370: 9060 063c d990 1e3c 3373 b1bb 0e36 e7ba
00000380: 99eb 103c dd54 713b 59c5 103c 41c6 873c
00000390: 3e37 66bc fef4 9e3c 061a b1bb e931 06bc
000003a0: e71f 8fbc 802e df3b ecf9 823c 441b 283c
000003b0: 539c 9fbc 268a b4bc f507 863c b09b b33c
000003c0: 6343 64bb d3ce 73bc dffc 9ebc 65c1 053c
000003d0: c6db 853c 2002 94bc c66a 1bbc d7a4 66bc
000003e0: 206c 753b 2db9 6d3a 1d2f 91bc dedb a93b
000003f0: d1e2 c63c defb bf3b f047 30bc aaa9 8d3c
0.010912294 -0.0068757487 0.007311495 0.009128901 0.011005141 0.004855288 -0.012085791 -0.02449147
0.0033733181 0.0035534059 -0.011247375 0.0203228 -0.0017041937 0.0114586195 -0.011007283 -0.024537379
-0.013140083 -0.014238922 -0.0010884311 -0.010016661 -0.0068135695 0.01797148 0.009807308 -0.0091899615
-0.018534616 0.012505833 -0.0045940294 0.014036697 0.008320875 0.008020467 0.023938684 0.016796423
-0.010415137 0.0069713816 -0.015497612 -0.006216598 -0.0244422 -0.021923175 0.022245103 -0.0042406837
0.0030033325 -0.011224964 0.024165347 -0.021438798 0.0003877982 -0.021925949 -0.018748883 -0.022018913
-0.016073888 0.018814392 0.0036042966 0.010747744 -0.024285326 -0.017787838 0.024221465 0.0039117457
0.008515827 -0.023310281 0.01713918 -0.024205899 0.008659123 -0.0045991815 0.01866732 -0.010141705
0.002003753 0.024674192 0.0135581205 -0.0046476224 0.0027009714 0.020777589 0.0062512076 -0.024241557
0.009096139 0.010023129 0.0017043111 0.022086853 0.022746282 0.004955156 0.008180386 -0.004292953
0.024764715 -0.019728275 -0.01655745 -0.01229888 0.023130378 0.0041362573 -0.009645815 -0.0016446253
0.0034576468 -0.017018586 -0.009884417 0.013645527 -0.0040164087 0.0013369397 -0.002466134 -0.023922414
-0.0042836703 0.020567091 -0.0225692 0.020004975 0.02188551 -0.01360575 0.0068473155 -0.020312415
0.020266414 0.020764673 -0.017550157 0.012179749 0.014895085 0.011774281 -0.0028541368 0.021179203
-0.0060710437 0.017053485 0.023515608 0.0035688193 -0.018319285 -0.017617801 0.012927579 -4.996793e-05
0.0167857 0.016342627 -0.0152330715 -0.00066067505 -0.0019184679 -0.024801632 -0.018849716 -0.012424025
-0.010995509 -0.010323062 -0.020060573 0.006567764 0.010412092 0.011072217 0.010924563 0.0130777415
0.011640063 -0.002613066 -0.011029456 -0.0064980774 0.009558647 0.013304779 -0.0061241225 -0.02244306
-0.0116020385 0.012933342 0.012432254 0.022996131 -0.022747165 -0.0034314669 -0.022628926 0.023639007
0.0074043935 0.012599432 0.010208662 -0.002905681 -0.016215544 0.0054449104 0.020838017 0.009627424
-0.0046949442 0.0024022153 -0.0110685155 0.0119145885 -0.020106738 0.020638857 0.0058564097 0.022865025
-0.00272975 -0.011064701 -0.014884289 0.0052490295 0.018518703 -0.005405318 -0.01925264 0.023271197
-0.020374794 -0.023958398 -0.010183758 -0.01197067 0.01200991 0.004036539 0.0060297735 -0.0075349
0.00888021 0.015469161 -0.010126022 -0.016910817 0.019054579 0.00046460386 -0.0012112042 -0.0114721125
0.0022384678 0.018131727 -0.0015044744 -0.0012407276 -0.0027860499 -0.009805101 0.0032164056 0.024297781
-0.01459589 0.007981254 0.009683318 0.02167172 0.015410192 0.018428251 -0.003208348 -0.024887988
-0.017753769 0.0032762962 0.0010697705 -0.003381797 0.0058907964 -0.015825344 -0.0002843339 0.022916704
-0.007382378 0.001905068 0.01688682 -0.009836178 0.008201733 0.009678089 -0.005415344 -0.0017640011
0.008845233 0.0036824264 0.008836114 0.016574027 -0.014051257 0.01940393 -0.0054047136 -0.00819061
-0.017471267 0.006810963 0.015988313 0.010260407 -0.01948372 -0.02203853 0.016361216 0.021924824
-0.0034830205 -0.014880854 -0.019407688 0.008163785 0.016340148 -0.01806742 -0.009485906 -0.014077387
0.003744848 0.0009068426 -0.01772266 0.005183681 0.024278076 0.0058588823 -0.010759339 0.017292816

hidden_neurons.bias f4 [64]
00000000: 6154 5ebc c4ce bb3c 0214 4c3c 4aab 503b
00000010: c1db 693b 372f 033c df89 bebc a488 693c
00000020: 459f a43c 892a 9cba 576c 583c 7622 25bc
00000030: 0220 ab3b cad1 a5bc d61d 983c 981c e33b
00000040: 5583 c13c 45b9 0abc 5835 09bc 9903 c73c
00000050: 0873 ddbb c0f9 5abb c954 2aba 6a00 233c
00000060: 9af4 a7bc 084e 71bc 0850 8a3c 8dc2 8b3c
00000070: 9c08 e6bb 4414 a9bc e885 123c 118d ab3c
00000080: d1b6 203c 37d2 e83b 0732 8bbb bca2 7bbc
00000090: 73f2 08bc 7c1a a9bc b756 b7bc 73d5 a43c
000000a0: a1fc c63b a983 53bc 2af2 55bc a0c6 afbc
000000b0: 1970 af3c 3e6a ef3b 473e 8a3c eb36 81bc
000000c0: 4cfa 85bb 4d54 7c3c 7f5d 1ab9 878d aabc
000000d0: 0897 a33b 4102 bc3c ac11 7d3a 71d2 5d3c
000000e0: 1db5 23bc 4a40 a63c e5c2 24bc 34ca 2ebc
000000f0: 131f a93c 8ca1 033b 4a27 c53c 4091 9f3b
-0.013569922 0.022925742 0.012455942 0.0031840377 0.0035683962 0.008006862 -0.023259101 0.014253769
0.020095477 -0.0011914532 0.013209424 -0.010079017 0.0052223215 -0.020241637 0.018568914 0.006930899
0.023622194 -0.008467023 -0.008374535 0.024293708 -0.0067580976 -0.0033413023 -0.00064976193 0.009948829
-0.020502377 -0.014728077 0.016883865 0.017060542 -0.0070200693 -0.020639546 0.008943059 0.02094129
0.009809212 0.0071051377 -0.004247907 -0.015358623 -0.008358586 -0.020642512 -0.022380216 0.020121312
0.006072596 -0.012909808 -0.013058225 -0.021457016 0.021415757 0.007306366 0.0168754 -0.015773257
-0.0040886756 0.015400958 -0.00014721414 -0.020819439 0.0049923696 0.022950293 0.00096538174 0.013538943
-0.009991911 0.020294327 -0.010056232 -0.010668326 0.0206447 0.0020085303 0.024066586 0.00486961

fc_out.weight f4 [10, 64]
00000000: be6a debd 5cf0 e7bc 75a5 b0bd 6c1f 953d
00000010: 33d8 393d b6fb afbd 1204 963d d100 a23d
00000020: aeaa 8dbd ed1f b53d 2bc0 c1bd 6a44 ffbd
00000030: 8c40 bf3d f3ff c6bd 8dc0 343d 020e 4bbc
00000040: f209 83bd 3235 a7bd 3fac fcbd 59e8 62bd
00000050: 9be2 623d 478d 51bb a548 d63d 2bd8 d83b
00000060: 62ec bf3c 0f85 703c 980a dabd 67fc 87bd
00000070: 21e5 ff3d 61ad e93d 39c2 3e3d 81b2 a5bd
00000080: fb57 21bd 749e 76bd 0f39 4f3d c552 d33b
00000090: 2397 d339 1e0b f33d 0b8e f4bd 7176 ae3d
000000a0: 7ebd 6f3d 9524 513d 65b7 c9bd fad3 4e3d
000000b0: dcca 08bd 9bc5 e03b 964f 08bd 5202 993d
000000c0: 164a e73d 608b 433d 1871 cbbd 2f2e d43b
000000d0: 4f44 573d a94d 763c c83a cc3d 101b dd3d
000000e0: b873 923c dac2 1c3d f098 6cbd 9cb1 babd
000000f0: 4f9e 41bd f9b6 a03b c1bd 473d c8ac 24bd
00000100: 5b34 923d bc72 eb3d d76f b43d e575 8abd
00000110: 4b5b f0bd 4a51 4abd 0c5d eebd fa9e 7fbc
00000120: c3e0 abbc c848 1c3d 2bc0 503d da60 b8bd
00000130: d306 abbc 3ada e0bb 0db5 663d decb 97bd
00000140: 1062 9abc bd30 bfbc 4a38 9cbd c229 2abd
00000150: fb44 e43d 2294 8bbd d448 64bd a339 60bd
00000160: 90ec debd 352c b1bc d3e7 2f3a c526 763d
00000170: d1b2 b6bd 07b6 edbc f085 2bbd 92ef e23d
00000180: 3d07 b4bc 199b 0d3d 3eb5 c4bd ed9e abbc
00000190: 571f 183d 3ad7 80bc 2773 ba3c 17be 6f3d
000001a0: 39a5 a43d 4c8a 313d 899b be3d b670 d0bd
000001b0: 801b 73bc 9eee a73d ccfd ab3d 8bad e73d
000001c0: b57a 37bc 6dc9 06bd 38fd 85bc 5292 e5bd
000001d0: 2431 bfbd 3565 f83d 37f3 8ebd 7d5d 9d3d
000001e0: e69c a93d a0c0 9ebd 18c7 c6bd a441 d73d
000001f0: a65b d83d 63e1 ea3c f557 a9bd a922 95bc
00000200: 3b73 eebb 07bc 4ebd 2742 f43d a77a a7bd
00000210: 98e0 a4bd a154 d5bd c4ac 31bd 27fa 95bd
00000220: 7bd7 a53d 580d f9bc 8b94 b13d 61c9 993d
00000230: 6060 3fbd 2027 9fbd a890 d4bd 9176 e43d
00000240: 2f83 853d 1307 553d a175 fbbd fa07 eebb
00000250: a447 c5bd 05d2 6cbb 8879 84bd 3000 f4bd
00000260: 5563 d6bd b6d3 be3c 7baa 34bc 6576 e23d
00000270: 75e1 93bd db1f 4d3d 3b10 fabd b5f3 49bc
00000280: f305 d6bd 3e14 f73d 1e45 9f3c 8104 b13d
00000290: 0ab7 063d 7257 ddbc 1b1e 543d 90ba 84bc
000002a0: aa5b dabd d152 99bd ab53 8cbd 1dce ba3d
000002b0: 33f6 a3bd a598 6fbd d9b7 a8bc 8d92 a63c
000002c0: af35 e1bb 16ba dc3c bc43 c53d 8d11 dd3d
000002d0: 2036 dbbd 8476 dc3d b4c7 acbd 9812 cb3d
000002e0: 0def b43d 04c8 d13d cb07 c23d c5bf b83b
000002f0: b3de 9d3b 5c03 dd3c 9b9c b03d b19e 1e3d
00000300: 72b4 143d fea2 bf3d 2017 be3c 6abc fcbd
00000310: 1b3c ee3d 0e2b d03d a475 cdbd ea39 06bd
00000320: 8090 e33d c078 3a3d ad68 92bc 772f cebd
00000330: a453 bebd 8d2d df3d c9c4 57bc e4eb 2f3d
00000340: efdf 86bd d4e0 7f3d f096 1bbd ef6d 8ebd
00000350: 9197 2c3d d0e4 9b3d 8dff 883d 67e2 473d
00000360: 8bdf ed3b c8c1 803d fd7a 75bd 24ce b93d
00000370: 97e9 023c 710f ba3d e166 4dbc 73cb 023d
00000380: 6d3f 313d 2310 fcbd efb4 e63d 4824 0cbd
00000390: a8ca 87bd 7f08 58bd 8dd9 b23d 9cd5 c1bd
000003a0: 3cf7 debc 407e 163d 2611 a8bc 210c 8a3d
000003b0: 0a2b 68bd 7da7 bf3d f4b5 f9bc 2251 a63d
000003c0: 0ffb acbd 2482 f5bd aa7e 0b3d 530e f53d
000003d0: 5a56 bbbd 1850 c6bd 1e82 d5bd 60cc 93ba
000003e0: aba1 cbbd f825 8dbd c118 bebd 9cbe 3dbd
000003f0: be07 a03d 7af8 803c f65e d83d 7f8c 6e3c
-0.10860203 -0.028312854 -0.086253084 0.07281384 0.0453722 -0.08592932 0.07324995 0.07910312
-0.0691732 0.0884398 -0.09460481 -0.12464221 0.09338483 -0.09716787 0.044128943 -0.012393476
-0.06398381 -0.08164443 -0.12337541 -0.055397365 0.05539189 -0.0031975077 0.104630746 0.006617566
0.023428146 0.014680161 -0.10646552 -0.06639939 0.12494875 0.114100225 0.046571944 -0.080906875
-0.039390545 -0.060209706 0.050591525 0.006449076 0.00040357662 0.11867355 -0.11941155 0.08518685
0.058530323 0.051060278 -0.09849433 0.050495125 -0.033396587 0.006859494 -0.033279024 0.07471146
0.11293428 0.04774034 -0.0993368 0.006475232 0.05255538 0.015033164 0.09972149 0.107961774
0.017877445 0.038271762 -0.05776304 -0.091159075 -0.047270115 0.0049046245 0.048764948 -0.04020384
0.07138892 0.11496493 0.08810394 -0.06760768 -0.11736163 -0.04939393 -0.11638841 -0.015601868
-0.020981198 0.038155347 0.050964516 -0.09002848 -0.020877277 -0.006861952 0.056325007 -0.074119315
-0.018845588 -0.02333867 -0.07627924 -0.04154373 0.111459695 -0.068153635 -0.055733517 -0.054742467
-0.108849645 -0.021627525 0.0006710265 0.060095567 -0.08920825 -0.029017461 -0.04187578 0.11080851
-0.021976108 0.03457174 -0.09604882 -0.020949805 0.037139263 -0.015727628 0.022759987 0.058530893
0.08039326 0.04334478 0.0930701 -0.10177748 -0.0148380995 0.081998095 0.08398017 0.113123976
-0.011198689 -0.03290694 -0.016356096 -0.11209549 -0.09335545 0.12128679 -0.06979983 0.07683847
0.08281879 -0.07751584 -0.09705943 0.10510567 0.105643556 0.028671926 -0.082687296 -0.018205004
-0.00727692 -0.050472286 0.1192668 -0.08177691 -0.0805065 -0.10416532 -0.043377653 -0.073231034
0.0809774 -0.03040187 0.086709104 0.07509113 -0.04672277 -0.077711344 -0.103791535 0.11155427
0.06519162 0.0520087 -0.12278295 -0.0072641345 -0.09632805 -0.0036135924 -0.06468493 -0.11914098
-0.10468165 0.023294311 -0.011026974 0.11057738 -0.07220737 0.050079208 -0.12210127 -0.012326171
-0.104503535 0.12064408 0.019442137 0.08643437 0.032889403 -0.027019236 0.051786523 -0.016202241
-0.10662015 -0.07486499 -0.06851896 0.09121344 -0.08005943 -0.058495183 -0.020595478 0.020333553
-0.0068728547 0.026944201 0.0963206 0.10794363 -0.10703683 0.107647926 -0.08436528 0.09915656
0.08834658 0.10243228 0.09474143 0.005638095 0.0048178076 0.026979141 0.0862362 0.03872556
0.0363049 0.0935726 0.023204386 -0.12340625 0.11632558 0.10164462 -0.10032204 -0.032770075
0.111115456 0.045525312 -0.017872179 -0.10067647 -0.09293297 0.1089736 -0.013169476 0.042949572
-0.06585681 0.062470272 -0.037985742 -0.06954562 0.042136732 0.07612002 0.066893674 0.0487999
0.0072593144 0.06286961 -0.059931744 0.09072521 0.0079902625 0.090849765 -0.012536735 0.031932306
0.04327338 -0.12307765 0.11264979 -0.034214288 -0.066304505 -0.052742478 0.08732901 -0.09464571
-0.0272175 0.036741495 -0.02051599 0.06740595 -0.05668167 0.09358118 -0.03048227 0.081209436
-0.08446323 -0.11987713 0.034056343 0.11965623 -0.0914733 -0.096832454 -0.104252085 -0.0011276118
-0.09942945 -0.068920076 -0.09282065 -0.046324357 0.07813977 0.015743483 0.10564987 0.014559864

fc_out.bias f4 [10]
00000000: 171b cabd 6cef d7bd 3474 ca3d 46ce 50bd
00000010: f274 ccbd 8633 a0bb 042a e13d 8248 793d
00000020: cf41 8abc 1750 3f3c
-0.09868448 -0.10543713 0.09885445 -0.050977968 -0.09983243 -0.0048889546 0.10994342 0.060860164
-0.016877083 0.01167681
