fation_net_arc3_adam.pth (torch, 548231 bytes, 10 tensors)

Conv2D_1.weight f4 [64, 1, 2, 2]
0.5956269 -0.13064077 0.5338301 0.48487583 -0.5829795 0.9011591 -0.6605261 0.6282696
0.86919403 -0.39935508 1.3108796 -1.4250441 -2.68473 -1.5776805 -2.5597596 -1.677761
0.8945263 -0.15277208 0.31129822 0.4474589 -2.3154209 -1.7016886 -2.3598218 -1.4302539
-3.6321666 -0.21553339 -2.9369125 -0.1426281 -2.0477123 0.09769783 -1.8276043 0.5964458
0.3970198 0.099428825 0.7115442 0.46678874 0.93474454 0.010693277 0.40356895 0.7848421
-1.9379476 -2.3742661 -1.5827622 -1.5375915 -2.3920536 -0.32471678 -3.2740648 0.037648525
-2.291935 -2.0061746 -2.1521797 -2.3260162 -3.3436203 -0.24761096 -3.7644832 -0.5796836
0.8626479 -0.050339323 0.2165908 0.63539463 -1.9395943 0.11890023 -2.5061436 0.11659893
-1.2743992 0.7474754 -1.037792 1.0082448 -2.1602185 0.20983237 -2.5319884 0.21399675
-1.9626553 -2.1227658 -3.2278564 -1.683831 -1.5627998 -2.1915793 -2.7117856 -1.9850879
-3.3289144 -0.88527185 -2.0228019 -0.5217746 -2.9287212 -0.073767014 -3.0183518 0.15920208
0.8594225 -0.579759 0.8599817 -0.9452215 -2.5532947 0.40519252 -1.5760461 0.16296561
-2.773569 0.033078622 -2.7273467 0.22315724 -0.9916646 0.36610112 -1.9896312 0.6774505
-2.5496614 -0.56035954 -2.342352 -0.08079152 -1.7177366 -2.0979486 -2.0087638 -2.1576276
0.6814302 -0.06977199 0.52006906 0.11097648 -2.4283934 -1.856177 -3.046088 -1.3898087
0.51167035 -0.1399613 0.41561505 0.587815 0.6418533 -0.089087114 0.44258136 0.60262173
-1.8790842 -2.1662326 -2.982418 -1.7983379 -2.6977296 -1.3154374 -3.547655 -1.440298
-0.6415799 0.8522194 -0.7702161 0.7976528 0.095559835 0.7197813 -0.26113534 1.0478841
-0.31613138 0.69754314 -0.92511237 0.7653644 -1.9461668 -2.1052153 -2.9410195 -1.234601
-3.29106 -1.7981929 -2.5344737 -0.9276106 0.45522386 -0.07191885 0.5767249 0.4108565
-0.55000186 0.94996494 -1.2184561 0.69227964 0.7523325 0.66978043 0.7123732 -0.26936987
-2.1678948 -2.6705437 -1.5967495 -1.6943398 0.473096 0.3004868 0.4936709 -0.32489645
-3.3786368 -0.6110657 -2.9340658 0.05619246 -0.17099036 0.68855417 -0.41168293 0.7218862
0.3041407 0.18255648 0.6257561 -0.056308057 -3.2581353 -1.425732 -3.107996 -1.2109601
-2.7601957 -1.6544309 -3.3034358 -1.0296944 0.26205128 0.665024 -0.5139413 1.1193655
0.53382784 -0.09739297 0.5235422 0.39311513 0.50059694 0.283885 0.2339875 0.4825603
0.5578813 0.1563076 0.677358 -0.37457287 0.66497344 0.13567977 0.731215 -0.49394974
0.8860341 0.24942677 0.19396026 0.7883739 1.0767777 -0.3985671 0.82343423 -1.289243
0.5116202 -0.020022077 0.55548656 0.2893066 0.554496 0.011905138 0.669187 0.16201021
-3.2257617 -0.54228383 -2.759807 -0.20613562 0.36616966 0.09919963 0.7807509 0.073162325
0.68433625 -0.08886518 0.28839096 0.6254124 -1.8339314 -1.7560391 -3.2066133 -2.2321868
0.84528834 -0.23691188 0.5995101 -1.0147662 0.51282066 0.13184325 0.7649686 -0.5562605
00000000: 017b 183f b2c6 05be 17a9 083f a541 f83e
00000010: 253e 15bf 5db2 663f 3d18 29bf 47d6 203f
00000020: 8083 5e3f 4578 ccbe e7ca a73f d867 b6bf
00000030: 9ed2 2bc0 6ff1 c9bf 1ad3 23c0 dfc0 d6bf
00000040: adff 643f 4970 1cbe 7b62 9f3e 5519 e53e
00000050: db2f 14c0 efd0 d9bf 5207 17c0 8f12 b7bf
00000060: 6b75 68c0 c9b4 5cbe 60f6 3bc0 1a0d 12be
00000070: b80d 03c0 cd15 c83d f0ee e9bf acb0 183f
00000080: 2e46 cb3e 57a1 cb3d c327 363f effe ee3e
00000090: 6b4b 6f3f db32 2f3c 97a0 ce3e 69eb 483f
000000a0: ab0e f8bf faf3 17c0 f497 cabf cccf c4bf
000000b0: 6817 19c0 4741 a6be 478a 51c0 5735 1a3d
000000c0: 10af 12c0 2a65 00c0 50bd 09c0 73dd 14c0
000000d0: e0fd 55c0 ba8d 7dbe 4bed 70c0 2566 14bf
000000e0: 7ed6 5c3f 9b30 4ebd fbc9 5d3e 39a9 223f
000000f0: a044 f8bf f781 f33d a864 20c0 6bcb ee3d
00000100: 831f a3bf 8c5a 3f3f 5ed6 84bf 2a0e 813f
00000110: 0541 0ac0 4cde 563e 190c 22c0 f721 5b3e
00000120: 4a38 fbbf 65db 07c0 3395 4ec0 c687 d7bf
00000130: d309 c8bf d642 0cc0 e58d 2dc0 5c17 febf
00000140: ef0c 55c0 2da1 62bf 9675 01c0 0593 05bf
00000150: 2b70 3bc0 2913 97bd ad2c 41c0 df05 233e
00000160: 1d03 5c3f 166b 14bf c327 5c3f 09fa 71bf
00000170: 2e69 23c0 6575 cf3e e1bb c9bf 75e0 263e
00000180: 2882 31c0 737d 073d d98c 2ec0 5583 643e
00000190: bbdd 7dbf 9b71 bb3e 3cac febf 656d 2d3f
000001a0: a72d 23c0 b973 0fbf 18e9 15c0 0676 a5bd
000001b0: cbde dbbf ca44 06c0 968f 00c0 9216 0ac0
000001c0: 3672 2e3f 9ee4 8ebd 3f23 053f a347 e33d
000001d0: cc6a 1bc0 3597 edbf 1bf3 42c0 40e5 b1bf
000001e0: d4fc 023f 0452 0fbe 7fcb d43e 0b7b 163f
000001f0: 7f50 243f 4e73 b6bd 069a e23e 6b45 1a3f
00000200: d585 f0bf 8ea3 0ac0 f0df 3ec0 f02f e6bf
00000210: 9aa7 2cc0 4160 a8bf c80c 63c0 af5b b8bf
00000220: 953e 24bf 0d2b 5a3f e22c 45bf f932 4c3f
00000230: e0b4 c33d 9643 383f 88b3 85be 1121 863f
00000240: f9db a1be 3092 323f 2ad4 6cbf ecee 433f
00000250: fe1b f9bf d9bb 06c0 aa39 3cc0 6807 9ebf
00000260: baa0 52c0 2f2b e6bf d134 22c0 e377 6dbf
00000270: 1a13 e93e 314a 93bd 3ea4 133f c85b d23e
00000280: eccc 0cbf e730 733f 5ff6 9bbf 3d39 313f
00000290: dd98 403f bb76 2b3f 175e 363f d9ea 89be
000002a0: cabe 0ac0 30ea 2ac0 4a62 ccbf 20e0 d8bf
000002b0: a439 f23e 68d9 993e 6fc2 fc3e d458 a6be
000002c0: 963b 58c0 cd6e 1cbf bcc7 3bc0 112a 663d
000002d0: 1918 2fbe 1645 303f 1bc8 d2be 89cd 383f
000002e0: 54b8 9b3e 16f0 3a3e 8d31 203f 47a3 66bd
000002f0: 4a85 50c0 637e b6bf 68e9 46c0 be00 9bbf
00000300: 0ca7 30c0 64c4 d3bf 7e6b 53c0 07cd 83bf
00000310: 962b 863e 033f 2a3f a891 03bf 5e47 8f3f
00000320: f1a8 083f f775 c7bd dd06 063f 6346 c93e
00000330: 1f27 003f 6059 913e 6b9a 6f3e 2512 f73e
00000340: 4fd1 0e3f 190f 203e 5567 2d3f 04c8 bfbe
00000350: b33b 2a3f a3ef 0a3e e830 3b3f fbe6 fcbe
00000360: 21d3 623f bb69 7f3e 859d 463e dfd2 493f
00000370: dad3 893f fd10 ccbe 96cc 523f ea05 a5bf
00000380: 8bf9 023f 5705 a4bc 5e34 0e3f ff1f 943e
00000390: 73f3 0d3f c50d 433c d74f 2b3f 01e6 253e
000003a0: e172 4ec0 1dd3 0abf aea0 30c0 3715 53be
000003b0: 977a bb3e 2d29 cb3d 4adf 473f 21d6 953d
000003c0: a930 2f3f f3fe b5bd fba7 933e 071b 203f
000003d0: 44be eabf e4c5 e0bf 2739 4dc0 26dc 0ec0
000003e0: d164 583f 0799 72be 7e79 193f dce3 81bf
000003f0: 3748 033f eb01 073e fbd4 433f 1767 0ebf

Conv2D_1.bias f4 [64]
0.46869206 -0.05261395 0.03299507 0.09081924 0.3326233 -0.08883116 -0.10071872 0.5010468
0.26892278 -0.31263053 -0.34560037 0.21655925 -0.4658253 -0.18674463 0.02161454 0.4380149
0.11921685 0.23319235 0.13131651 -0.16198161 -0.09791864 0.5074847 0.18922566 -0.085588016
0.11349933 0.47551554 -0.4745534 0.067895554 -0.021135202 0.28357798 0.1241556 -0.3360391
0.11093368 0.2921975 0.34382072 -0.12365253 -0.16171525 0.028005145 -0.40552595 -0.3575119
0.4098304 0.4369922 0.18671177 0.41028142 0.06537682 0.09940447 0.29829842 -0.31713238
0.3189757 0.3442563 0.44841635 0.30209213 -0.3851468 0.34427443 0.04748202 -0.438057
-0.018512545 0.1675292 0.079768345 -0.0040858127 0.014149082 0.4357231 -0.078881435 -0.35197532
00000000: 68f8 ef3e ba81 57bd d725 073d 70ff b93d
00000010: 9a4d aa3e 1ced b5bd 9e45 cebd 9a44 003f
00000020: 3fb0 893e 1c11 a0be 88f2 b0be b5c1 5d3e
00000030: a780 eebe fc39 3fbe fa10 b13c 7d43 e03e
00000040: f727 f43d fac9 6e3e d677 063e 82de 25be
00000050: 9189 c8bd 84ea 013f 5fc4 413e c548 afbd
00000060: 5672 e83d c676 f33e aaf8 f2be d30c 8b3d
00000070: bb23 adbc 2231 913e 4b45 fe3d 510d acbe
00000080: 3231 e33d e99a 953e 4509 b03e 8a3d fdbd
00000090: af98 25be 0c6b e53c 19a1 cfbe cd0b b7be
000000a0: 4ad5 d13e 71bd df3e 5f31 3f3e 6810 d23e
000000b0: 48e4 853d 9294 cb3d 92ba 983e 2d5f a2be
000000c0: c850 a33e 5d42 b03e d496 e53e d2ab 9a3e
000000d0: f631 c5be bd44 b03e 827c 423d 0249 e0be
000000e0: 9fa7 97bc c68c 2b3e 965d a33d 48e2 85bb
000000f0: 8dd1 673c 1917 df3e 978c a1bd 1c36 b4be

Conv2D_2.weight f4 [64, 64, 2, 2]
-0.09005199 -0.923627 0.5810747 -0.21676621 -0.6318647 -0.38209498 -0.19458169 -0.65983063
0.3764214 -0.48284778 0.35781494 0.27669904 0.03021893 0.58021164 -0.50264 0.17187397
-0.119698696 -0.87644696 0.1311488 -0.33493522 0.18457218 0.58639157 -0.38864982 0.1291891
0.15554148 0.7255644 -0.25961706 -0.08732185 0.06583603 0.23980965 -0.7796263 -0.37757158
-0.15423733 -0.9397812 0.3611751 -0.11147921 -0.11091882 -0.884869 0.4016982 -0.20801553
0.113097794 0.59315044 -0.50752705 0.29645875 0.15362024 0.65722764 -0.57469034 -0.009749254
0.38842827 0.26726696 -0.45955667 0.19566987 0.17136213 0.41639686 -0.7824355 0.003169973
-0.2678468 -0.88422304 0.4366646 -0.2598084 0.31280285 0.39729342 -0.6946041 0.46660358
-0.7468164 -0.36819917 -0.45194843 -0.86600167 0.30116352 0.2847533 -0.525045 -0.07634959
0.20870195 0.2969272 -0.6506627 0.36972758 0.22980171 0.5385725 -0.69603187 0.5523835
0.26925915 0.48495063 -0.5435149 -0.04648424 0.06565971 0.30510893 -0.41137484 0.12263774
0.38388842 -0.22848508 0.16551104 0.083166815 -0.05448325 0.53839225 -0.5368343 -0.02549828
0.059754986 0.28871983 -0.6023322 0.2558145 0.21346667 -0.17309052 -0.7614057 -0.77148217
0.4201292 0.64422554 -0.45379162 0.4106235 0.18401201 0.5560636 -0.3622609 0.2448853
-0.17107154 -0.7532195 0.123724826 -0.48514077 0.111290015 0.48156896 -0.6994063 0.37613058
-0.2617421 -0.91179204 0.13991539 -0.33960608 -0.19234972 -0.842747 0.347281 -0.38062012
-0.10566866 0.33896855 -0.5677386 0.21405046 0.34137344 0.12722155 -0.41482067 0.2109429
-0.6961149 -0.4625864 -0.06891388 -0.71621495 -0.7248814 -0.6883298 0.26808357 -0.40243304
-0.68479127 -0.5909153 0.11593909 -0.51780945 0.21904728 0.3511805 -0.45737872 0.45936283
0.19019356 0.22668627 -0.5094235 0.21562816 -0.40638563 -1.1126881 0.17373912 -0.19339171
-0.4847361 -0.22912815 -0.2358769 -0.81945646 -0.39896366 -0.8918473 0.11418812 0.0077690706
0.029417664 0.33332723 -0.3329877 0.2421093 -0.14628585 -1.0181519 0.041629214 -0.391731
0.45342436 0.21815601 -0.60047054 0.06395365 -0.82127786 -0.5902354 0.122279435 -0.47074822
-0.017252756 -1.0416142 -0.05420853 -0.42379114 0.32044563 0.5157364 -0.4874582 0.20095885
-0.015102952 0.39913455 -0.6370271 0.26064178 -0.66364586 -0.59137285 0.02955324 -0.2920038
-0.23010261 -0.8337861 0.060643192 -0.13139668 -0.40838325 -0.8772797 -0.008594567 -0.52499175
-0.20273401 -0.7474808 -0.079507485 -0.24724962 -0.20814556 -0.9756196 -0.08231204 -0.30536795
-0.41757315 -0.7616897 0.28399414 -0.021152886 0.039228555 -0.15161915 0.1301152 -0.030987067
-0.41614574 -0.9594264 0.13121831 -0.40655497 -0.22865619 -0.93362725 0.10629668 -0.20778953
0.10596371 0.67955923 -0.17923333 0.08081825 -0.2266092 -0.95193666 -0.0744123 -0.16280296
-0.3137825 -0.78588057 0.25811344 -0.23452848 0.16305633 0.4573024 -0.3082007 0.34993836
0.113767184 -0.6062551 -0.09070479 -0.1847985 -0.2574074 -1.0088007 -0.29545918 -0.13938604
00000000: 2d6d b8bd d272 6cbf 50c1 143f f6f7 5dbe
00000010: e3c1 21bf f4a1 c3be 6c40 47be a9ea 28bf
00000020: 4eba c03e d337 f7be 8533 b73e 7fab 8d3e
00000030: b18d f73c c088 143f 04ad 00bf bbff 2f3e
00000040: 9724 f5bd d45e 60bf df4b 063e a17c abbe
00000050: 7d00 3d3e c21d 163f 1cfd c6be 264a 043e
00000060: 4446 1f3e 97be 393f 87ec 84be ccd5 b2bd
00000070: 0ad5 863d a990 753e 9795 47bf 1051 c1be
00000080: 64f0 1dbe 8095 70bf f1eb b83e 364f e4bd
00000090: 6829 e3bd c686 62bf 63ab cd3e 0602 55be
000000a0: d19f e73d b5d8 173f 4bed 01bf 71c9 973e
000000b0: a04e 1d3e 1240 283f e81e 13bf 56bb 1fbc
000000c0: 12e0 c63e 37d7 883e 034b ebbe af5d 483e
000000d0: 8e79 2f3e f831 d53e b14d 48bf 52bf 4f3b
000000e0: 3723 89be 715c 62bf 8192 df3e 9b05 85be
000000f0: b227 a03e 0b6a cb3e 93d1 31bf aae6 ee3e
00000100: 5c2f 3fbf 9a84 bcbe c965 e7be 49b2 5dbf
00000110: 1b32 9a3e 2fcb 913e 5969 06bf 2d5d 9cbd
00000120: f7b5 553e d806 983e d591 26bf ef4c bd3e
00000130: 2451 6b3e e3df 093f 252f 32bf 0169 0d3f
00000140: 56dc 893e 734b f83e cb23 0bbf 4266 3ebd
00000150: 9978 863d 3d37 9c3e b99f d2be 7f29 fb3d
00000160: 068d c43e fef7 69be ba7b 293e 5d53 aa3d
00000170: d429 5fbd 13d4 093f f96d 09bf c5e1 d0bc
00000180: a5c1 743d 16d3 933e 7132 1abf 1efa 823e
00000190: 0297 5a3e a43e 31be 7ceb 42bf db7f 45bf
000001a0: 2d1b d73e f7eb 243f 6057 e8be 3e3d d23e
000001b0: a56d 3c3e 2f5a 0e3f 437a b9be 36c3 7a3e
000001c0: 612d 2fbe fed2 40bf 7163 fd3d 5f64 f8be
000001d0: 05ec e33d 3590 f63e 4b0c 33bf 3094 c03e
000001e0: 0f03 86be 346b 69bf fb45 0f3e d9e0 adbe
000001f0: 53f7 44be 44be 57bf d1ce b13e a4e0 c2be
00000200: cf68 d8bd 498d ad3e 5157 11bf 0b30 5b3e
00000210: 80c8 ae3e 5e46 023e 6063 d4be 6a01 583e
00000220: 9634 32bf 20d8 ecbe b822 8dbd dd59 37bf
00000230: d491 39bf 6236 30bf 4042 893e b40b cebe
00000240: 7b4e 2fbf 3a46 17bf 7971 ed3d 298f 04bf
00000250: ee4d 603e eecd b33e 8b2d eabe 9b31 eb3e
00000260: 1ac2 423e 7220 683e 9469 02bf a1cd 5c3e
00000270: c711 d0be 906c 8ebf abe8 313e 7a08 46be
00000280: 552f f8be 92a0 6abe b789 71be e6c7 51bf
00000290: f744 ccbe 1b50 64bf 76db e93d b093 fe3b
000002a0: 50fd f03c dea9 aa3e 5d7d aabe 80eb 773e
000002b0: f5cb 15be cd52 82bf 6583 2a3d f790 c8be
000002c0: 3d27 e83e 4a64 5f3e 70b8 19bf 22fa 823d
000002d0: 443f 52bf ab19 17bf a46d fa3d e905 f1be
000002e0: a755 8dbc 9d53 85bf c309 5ebd 27fb d8be
000002f0: 7311 a43e 4d07 043f 1f94 f9be 28c8 4d3e
00000300: 5f72 77bc 5d5b cc3e 3514 23bf d772 853e
00000310: b2e4 29bf 3664 17bf a319 f23c 8681 95be
00000320: 05a0 6bbe 0173 55bf ff64 783d da8c 06be
00000330: 9c17 d1be 6795 60bf 3ad0 0cbc dc65 06bf
00000340: 8199 4fbe e75a 3fbf d2d4 a2bd 012f 7dbe
00000350: 1c24 55be 35c2 79bf 3793 a8bd 3059 9cbe
00000360: 26cc d5be 19fe 42bf ae67 913e d148 adbc
00000370: 1fae 203d 0d42 1bbe eb3c 053e 97d8 fdbc
00000380: 0e11 d5be f89c 75bf 185e 063e f927 d0be
00000390: d924 6abe 3202 6fbf 13b2 d93d c7c6 54be
000003a0: 8003 d93d 98f7 2d3f f188 37be 0a84 a53d
000003b0: 3e0c 68be 1fb2 73bf 7a65 98bd d2b5 26be
000003c0: 1aa8 a0be 782f 49bf 7227 843e 3c28 70be
000003d0: 3df8 263e 8a23 ea3e 7bcc 9dbe 1f2b b33e
000003e0: c5fe e83d 8933 1bbf 6fc3 b9bd d13b 3dbe
000003f0: e7ca 83be 6220 81bf 6d46 97be 37bb 0ebe

Conv2D_2.bias f4 [64]
0.059110776 -0.021861594 -0.043103922 -0.011059681 -0.027488781 0.037819844 -0.04306956 0.010578716
0.00072843535 0.008081266 0.010381439 -0.010929224 0.0052760527 0.04520246 0.03725994 0.056273676
0.025302444 0.014182966 0.023838578 0.051305197 -0.022096733 0.012631246 -0.055380765 0.06262791
-0.0038180293 -0.04994289 0.030534068 -0.047173794 -0.006160692 -0.028026152 -0.045990225 -0.06036891
0.02009972 0.008634262 -0.042786885 0.061513413 -0.008555731 -0.017336372 -0.05069974 -0.037515875
0.05524244 -0.033967603 -0.04765674 0.019314108 0.061661366 -0.018628929 0.009948496 0.017784623
0.020928292 -0.040290423 0.018471802 0.028540436 -0.055047344 -0.007882279 0.04047669 -0.02991638
-0.02159918 -0.04606097 -0.0078216875 0.058627557 0.011512514 0.0050152144 -0.050456557 -0.039817996
00000000: 241e 723d 1617 b3bc bd8d 30bd aa33 35bc
00000010: 2730 e1bc fbe8 1a3d b569 30bd 5a52 2d3c
00000020: 78f4 3e3a 4967 043c e916 2a3c 7d10 33bc
00000030: bde2 ac3b 3726 393d e19d 183d 3a7f 663d
00000040: 1247 cf3c ac5f 683c 1f49 c33c 6625 523d
00000050: 3504 b5bc 49f3 4e3c f1d6 62bd 1043 803d
00000060: e737 7abb ea90 4cbd 9522 fa3c 4f39 41bd
00000070: a1df c9bb 1a97 e5bc 3f60 3cbd 6445 77bd
00000080: 2ba8 a43c b876 0d3c 4d41 2fbd 7df5 7b3d
00000090: 562d 0cbc 0205 8ebc 88aa 4fbd 3faa 19bd
000000a0: e645 623d 9d21 0bbd b733 43bd 9f38 9e3c
000000b0: a190 7c3d b29b 98bc 04ff 223c 0fb1 913c
000000c0: cf71 ab3c 9207 25bd 2d52 973c a2cd e93c
000000d0: 5379 61bd ad24 01bc e3ca 253d 3213 f5bc
000000e0: c3f0 b0bc 6daa 3cbd 8926 00bc 7323 703d
000000f0: fc9e 3c3c ab56 a43b 89ab 4ebd 3218 23bd

Conv2D_3.weight f4 [64, 64, 2, 2]
-0.00887047 -0.10949667 0.2665248 0.24222538 0.24979706 -0.6786322 0.19350992 -0.49793
0.17104642 -0.1511826 0.16498409 -0.038939875 0.38430467 0.07934423 0.39023745 -0.049150027
0.27779555 -0.097627535 0.008068772 -0.042821854 0.26220173 -0.10730759 0.05263278 -0.23067927
0.08249197 -0.02575863 0.05499138 -0.0049618115 0.31721756 -0.105093494 0.041268643 -0.007009129
-0.093801156 -0.1767161 -0.28496885 0.10110334 0.027397228 0.114925124 -0.06631103 0.18368517
0.37974256 -0.45672664 0.25388625 -0.20059028 0.02441044 -0.296869 0.18598217 -0.042210013
0.14710815 0.0073106005 0.19540112 0.061885975 0.48752946 -0.48528194 0.29050902 0.019290486
0.14999661 -0.043390818 0.17641573 -0.011896204 0.4091187 0.062799655 -0.020974468 -0.015154287
0.34211686 -0.72325456 0.127527 -0.15039937 0.14451586 -0.2288977 0.13739203 0.2374932
0.882065 -0.029629601 0.3586074 -0.026588842 0.50119066 -0.09433713 0.0824907 0.21999565
0.60820526 -0.48229936 0.11856735 0.17613813 0.24263535 -0.013060429 0.15461634 -0.034127492
0.6479331 -0.24825238 0.15810528 -0.0077212313 0.43448573 -0.05764911 0.27878028 0.11933346
0.3563408 -0.38735673 0.09223859 0.2572863 0.5497369 -0.14946593 0.05110048 0.14898881
0.2611734 0.06269374 0.16958852 0.12644744 0.22439346 0.005607933 -0.01029032 0.050638832
0.4147086 -0.024120709 0.0516611 0.058424953 0.19233388 -0.25468385 0.013329051 0.078009315
0.588914 -0.3146202 0.18252745 0.18878792 0.30174 0.041354075 0.15006013 -0.12325177
0.09169275 -0.13542351 0.11793357 0.08498334 0.00119 0.13492522 0.022678934 0.15793496
0.5513032 -0.09570586 0.2731356 0.15362777 0.52844477 -0.4691446 -0.0915353 0.28641462
0.7662221 -0.2443319 0.1918813 0.031096682 0.40220895 -0.2849536 0.15779178 -0.08904438
0.2969695 -0.26870227 0.074651696 -0.054022685 0.28881186 0.0030757613 -0.10201449 0.09252711
0.4155206 0.105922505 0.07485239 0.29180908 0.07764856 -0.33266598 0.20721966 -0.16778247
0.18789628 -0.18871093 -0.11979295 0.3543464 0.27766696 -0.10516442 0.07679983 0.17347068
0.39250296 0.04465873 0.033121727 0.04937787 0.2639162 0.12265633 0.17294493 0.15588437
0.52611554 -0.39920083 -0.22315685 0.31999055 0.3992326 0.055222627 0.10290625 -0.0064065713
0.18812951 0.022314308 0.17737925 0.11070693 0.596374 -0.08940484 0.37334305 0.1549295
0.049548503 -0.2443835 0.28540346 0.07882224 0.17097864 -0.14768651 0.013918882 0.07404847
0.31133056 -0.24198337 0.18035428 -0.018142268 0.12893243 0.009472575 0.12414362 0.086317785
0.593572 -0.33818743 0.14808293 0.1969971 0.5408949 -0.4941859 0.052860077 -0.0755939
-0.45026776 0.18586566 0.54427874 0.31024444 0.2232599 0.020008607 -0.0051698484 -0.05453259
0.49767938 -0.1677078 0.24670587 0.079193935 0.3003068 -0.16538616 0.06077359 -0.022743257
0.49503 -0.09328729 0.21900348 -0.016292222 0.40645748 -0.14787528 -0.16594005 -0.058858484
-0.035345107 -0.2505768 0.055856507 -0.0084799705 0.6132629 -0.17610446 -0.08436408 0.2386663
00000000: 7355 11bc ca3f e0bd f075 883e ee09 783e
00000010: cdca 7f3e d7ba 2dbf 7727 463e aef0 febe
00000020: cb26 2f3e 9dcf 1abe 97f1 283e 6b7f 1fbd
00000030: 95c3 c43e 3a7f a23d 34cd c73e 8a51 49bd
00000040: 383b 8e3e f2f0 c7bd e232 043c f865 2fbd
00000050: 4e3f 863e 15c4 dbbd 7895 573d 3037 6cbe
00000060: 8df1 a83d c303 d3bc a43e 613d b196 a2bb
00000070: 576a a23e 423b d7bd 4f09 293d d6ac e5bb
00000080: d21a c0bd 11f5 34be 70e7 91be 450f cf3d
00000090: 2770 e03c dd5d eb3d 14ce 87bd f717 3c3e
000000a0: 9e6d c23e 13d8 e9be 61fd 813e 8a67 4dbe
000000b0: 67f8 c73c 37ff 97be 1c72 3e3e 68e4 2cbd
000000c0: 85a3 163e c38d ef3b 3b17 483e 267c 7d3d
000000d0: 769d f93e e076 f8be 99bd 943e 1507 9e3c
000000e0: b698 193e 92ba 31bd 53a6 343e 4ce8 42bc
000000f0: 0278 d13e 1b9d 803d a6d2 abbc b049 78bc
00000100: f129 af3e 3627 39bf 7096 023e 4b02 1abe
00000110: f7fb 133e 2964 6abe 7fb0 0c3e 6b31 733e
00000120: 03cf 613f c7b9 f2bc 649b b73e d8d0 d9bc
00000130: 084e 003f d333 c1bd e2f0 a83d 8a46 613e
00000140: 57b3 1b3f f1ef f6be 70d3 f23d 8e5d 343e
00000150: 6775 783e 69fb 55bc bf53 1e3e 45c9 0bbd
00000160: f2de 253f df35 7ebe 5ae6 213e 6202 fdbb
00000170: ea74 de3e 7921 6cbd 4abc 8e3e 1a65 f43d
00000180: 4d72 b63e 9f53 c6be 96e7 bc3d 08bb 833e
00000190: 8fbb 0c3f 990d 19be bd4e 513d 8690 183e
000001a0: 85b8 853e 9365 803d 9da8 2d3e 707b 013e
000001b0: 66c7 653e c0c2 b73b bb98 28bc aa6a 4f3d
000001c0: b054 d43e cb98 c5bc 979a 533d 014f 6f3d
000001d0: 2cf3 443e ec65 82be 1862 5a3c 59c3 9f3d
000001e0: 11c3 163f e615 a1be 7ae8 3a3e 9f51 413e
000001f0: aa7d 9a3e e462 293d 5da9 193e 6d6b fcbd
00000200: 69c9 bb3d 76ac 0abe 2887 f13d bf0b ae3d
00000210: c6f9 9b3a d629 0a3e 2cc9 b93c b4b9 213e
00000220: 3522 0d3f 6f01 c4bd 6ed8 8b3e 9950 1d3e
00000230: 2848 073f b933 f0be dc76 bbbd f0a4 923e
00000240: 2227 443f 2432 7abe 887c 443e 78be fe3c
00000250: 55ee cd3e 70e5 91be 2b94 213e e65c b6bd
00000260: 630c 983e 5893 89be fde2 983d e446 5dbd
00000270: 26df 933e b692 493b f9ec d0bd da7e bd3d
00000280: 1ebf d43e e6ed d83d 364c 993d 0068 953e
00000290: 3506 9f3d 3253 aabe 6431 543e 2bcf 2bbe
000002a0: e267 403e 703d 41be 0256 f5bd e46c b53e
000002b0: 5d2a 8e3e 7260 d7bd 3b49 9d3d 4ca2 313e
000002c0: 26f6 c83e 13ec 363d a6aa 073d 7340 4a3d
000002d0: 0620 873e 3e33 fb3d 7a18 313e 27a0 1f3e
000002e0: 82af 063f 0d64 ccbe 3b83 64be cdd5 a33e
000002f0: 3768 cc3e 1f31 623d 83c0 d23d 37ee d1bb
00000300: 06a5 403e 7fcc b63c e8a2 353e 51ba e23d
00000310: f7ab 183f e219 b7bd d226 bf3e d7a5 1e3e
00000320: 5ff3 4a3d ab3f 7abe 6720 923e 8e6d a13d
00000330: 0615 2f3e 223b 17be 060c 643c b9a6 973d
00000340: b866 9f3e 7dca 77be cbae 383e 189f 94bc
00000350: dd06 043e dc32 1b3c 033f fe3d 61c7 b03d
00000360: 56f4 173f e726 adbe 0da3 173e 9cb9 493e
00000370: 1778 0a3f ef05 fdbe cf83 583d fad0 9abd
00000380: 7f89 e6be 9153 3e3e da55 0b3f 5cd8 9e3e
00000390: 3e9e 643e 17e9 a33c d567 a9bb 915d 5fbd
000003a0: d5cf fe3e 98bb 2bbe 77a0 7c3e 6e30 a23d
000003b0: d0c1 993e fd5a 29be baed 783d 1150 babc
000003c0: 9274 fd3e 680d bfbd 7342 603e 4477 85bc
000003d0: 321b d03e 9e6c 17be 30ec 29be 9815 71bd
000003e0: 08c6 10bd 9a4b 80be cbc9 643d 93ef 0abc
000003f0: ccfe 1c3f ba54 34be 13c7 acbd f064 743e

Conv2D_3.bias f4 [64]
0.021508418 0.054181125 -0.05181063 -0.01828365 -0.025799075 -0.054214545 -0.056352004 0.01863747
0.010371819 0.038254816 0.043594368 0.06257952 0.064686336 -0.012725133 0.03894323 0.018839706
0.0026192649 0.010470058 -0.022414627 -0.04790949 0.02630492 0.042455625 -0.044574704 -0.02503752
0.011415325 -0.053491358 -0.01817519 0.059702385 -0.060833145 0.021440014 0.035229906 -0.012371016
-0.047225583 0.030750912 0.014795536 0.006779627 -0.029168135 -0.010175803 0.0073039243 -0.0015336155
-0.048895784 -0.029649947 0.05875831 -0.034054518 -0.0069322735 -0.006721804 0.061522927 -0.037042
0.054841835 -0.0011349804 0.011011612 -0.009620675 0.024848217 0.040974084 -0.029869037 -0.042206973
0.021590613 0.019907285 0.019349908 -0.022312233 0.0020681561 -0.036271967 -0.037231203 0.017232861
00000000: 6c32 b03c 07ed 5d3d 6237 54bd 98c7 95bc
00000010: 9558 d3bc 1210 5ebd 5cd1 66bd 9cad 983c
00000020: 90ee 293c 15b1 1c3d 0290 323d b129 803d
00000030: 457a 843d 147d 50bc f082 1f3d ba55 9a3c
00000040: f9a7 2b3b 9b8a 2b3c e19e b7bc be3c 44bd
00000050: 6a7d d73c f3e5 2d3d f793 36bd 7c1b cdbc
00000060: 5807 3b3c c119 5bbd 23e4 94bc 7d8a 743d
00000070: 2d2c 79bd f8a2 af3c 3c4d 103d cdaf 4abc
00000080: 9d6f 41bd 56e9 fb3c fa68 723c a227 de3b
00000090: 03f2 eebc 69b8 26bc c255 ef3b 9903 c9ba
000000a0: f246 48bd 72e4 f2bc 8eac 703d c07c 0bbd
000000b0: 2028 e3bb 9442 dcbb 77ff 7b3d 5ab9 17bd
000000c0: d5a1 603d 9fc3 94ba 0c6a 343c 09a0 1dbc
000000d0: 7d8e cb3c 71d4 273d e9af f4bc 38e1 2cbd
000000e0: ccde b03c 9a14 a33c b383 9e3c 25c8 b6bc
000000f0: e789 073b ea91 14bd bf7f 18bd ee2b 8d3c

hidden_neurons.weight f4 [64, 1600]
-0.015588881 0.0030038473 -0.045161825 -0.019176563 -0.025590494 -0.025315465 -0.035987962 -0.026607998
-0.025181333 0.007929634 -0.03602703 -0.009167679 -0.0036980829 -0.022384834 -0.016668135 -0.055129893
-0.028067825 -0.026061825 -0.025447879 0.0013004622 -0.051719796 -0.018638266 -0.028581273 -0.029963743
-0.03283215 -0.047473907 -0.0056299185 -0.03608709 0.003591235 -0.019579208 -0.005476092 -0.009114015
0.0022656322 -0.013487664 -0.01644697 -0.04727021 -0.045921817 -0.04331783 -0.040114045 -0.020154404
-0.044148233 -0.025010841 -0.0043006833 -0.0048645446 -0.0050294925 -0.016409531 -0.010955241 -0.007043142
0.0010216916 -0.0014466436 -0.01611268 -0.050688196 0.0025680233 0.0017130235 -0.047236692 -0.0056759054
-0.007182305 -0.0056083673 -0.02984105 -0.026236815 -0.033323437 -0.0146425385 -0.03515874 -0.041045703
-0.028818315 -0.007261379 -0.009209011 -0.017944086 0.005761569 -0.016615339 -0.033430506 0.002617629
-0.04933876 0.00052248995 -0.02119846 -0.042312704 -0.0028056465 -0.04040152 -0.022855077 0.008320499
-0.06583756 -0.0012867097 -0.00047424683 -0.019373277 0.01518577 -0.041848134 -0.022573749 -0.012557433
-0.042944547 -0.0027864499 -0.04824739 -0.009019399 -0.023440324 -0.03644657 -0.024141094 -0.07234323
-0.02493726 -0.0385355 -0.007921814 -0.0098549025 -0.03353993 -0.04080249 -0.030260446 -0.040703736
-0.010805723 -0.021947771 -0.008505548 -0.015384001 -0.043562617 -0.026497966 -0.026762964 -0.0055345525
-0.031425834 -0.04553383 -0.014262889 -0.04158825 -0.027973182 -0.046043135 -0.036086835 -0.042419948
-0.0023845923 -0.050745897 -0.03336339 -0.039815035 -0.0070054866 -0.026882093 -0.023107745 -0.016169896
-0.037385102 -0.003883704 -0.05594127 -0.013135523 -0.036733896 -0.02196938 -0.014101791 -0.059897415
0.003907796 -0.009558367 -0.04420061 -0.034852386 -0.028300654 -0.03369799 -0.0435219 -0.0044121193
-0.042609558 -0.031339224 -0.032012258 -0.021591512 0.004485623 -0.017146619 -0.00889661 -0.03546422
-0.043946795 -0.00637 -0.050036892 -0.017036848 -0.03003894 -0.041479763 -0.04185847 -0.0093934545
-0.033426743 -0.010329812 -0.027977344 -0.015634855 -0.036911316 -0.0055670813 -0.026116636 -0.050613858
-0.021159302 -0.010539507 0.00062528247 -0.049403667 -0.022839313 -0.0077889157 -0.03481354 -0.05671549
-0.03877077 -0.021052437 0.011966773 -0.015046155 -0.05310824 -0.025430432 0.0119020175 0.012310652
0.014828683 -0.03323603 -0.016745819 -0.013693862 -0.036259048 -0.0042811367 -0.047712777 0.0062682414
-0.0006197173 -0.034738686 -0.010281186 -0.06748939 -0.0027351948 -0.002696559 -0.022033604 -0.03765575
-0.057511088 -0.016985083 0.0014971229 0.004762874 -0.00865869 -0.066502206 -0.014582367 0.00018191796
-0.034105863 -0.024193171 -0.062889375 -0.021418462 -0.00013234449 -0.01272226 0.015310059 -0.080041304
-0.041757945 -0.013860577 -0.019106671 0.0006917739 -0.028172914 0.0047647497 -0.0056603574 -0.027972154
-0.014975355 -0.027795149 -0.031440936 -0.032532338 -0.053266473 -0.003727927 0.0039716735 0.0031456784
-0.03285368 -0.020952595 -0.04006162 -0.022571886 -0.034684632 -0.017850742 -0.032789987 -0.022277571
0.001290345 -0.015923113 -0.036363833 -0.018316053 -0.015712019 -0.027864069 -0.0567084 -0.032698613
-0.02553776 -0.017124528 0.009246147 -0.01151765 -0.044045147 -0.025783585 -0.021035716 0.012632377
00000000: 8268 7fbc 32dc 443b 9bfb 38bd 2b18 9dbc
00000010: 28a3 d1bc 6162 cfbc 1d68 13bd 04f9 d9bc
00000020: 1549 cebc 4ceb 013c 1491 13bd 0834 16bc
00000030: 895b 72bb 6660 b7bc 9d8b 88bc e2cf 61bd
00000040: 7fee e5bc 9c7f d5bc 1278 d0bc 4574 aa3a
00000050: 23d8 53bd 47af 98bc 4623 eabc 8676 f5bc
00000060: 017b 06bd 0074 42bd 2e7b b8bb 0ed0 13bd
00000070: ed5a 6b3b 9364 a0bc ca70 b3bb f352 15bc
00000080: 007b 143b 5dfb 5cbc ccbb 86bc 689e 41bd
00000090: 8418 3cbd 096e 31bd a04e 24bd d91a a5bc
000000a0: c7d4 34bd 89e3 ccbc bfec 8cbb c266 9fbb
000000b0: 71ce a4bb 486d 86bc 9c7d 33bc 28ca e6bb
000000c0: 48ea 853a 4e9d bdba bdfe 83bc 6d9e 4fbd
000000d0: 484c 283b 8887 e03a 437b 41bd f2fc b9bb
000000e0: 8b59 ebbb 65c6 b7bb 3875 f4bc 97ee d6bc
000000f0: 287e 08bd 42e7 6fbc 9c02 10bd 8a1f 28bd
00000100: 6314 ecbc ddf0 edbb 64e1 16bc 7aff 92bc
00000110: 8bcb bc3b e41c 88bc 6dee 08bd 878c 2b3b
00000120: 7117 4abd b5f7 083a 65a8 adbc 1650 2dbd
00000130: f0de 37bb 107c 25bd 923a bbbc b452 083c
00000140: d8d5 86bd d0a6 a8ba 55a4 f8b9 b5b4 9ebc
00000150: bccd 783c f368 2bbd 95ec b8bc b1bd 4dbc
00000160: 9fe6 2fbd df9c 36bb 0e9f 45bd 1ac6 13bc
00000170: ec05 c0bc 0049 15bd 8bc3 c5bc b028 94bd
00000180: 3a49 ccbc 67d7 1dbd 7fca 01bc 7576 21bc
00000190: 2a61 09bd 8320 27bd c1e4 f7bc f6b8 26bd
000001a0: 7d0a 31bc d0cb b3bc db5a 0bbc 2d0d 7cbc
000001b0: b76e 32bd 4312 d9bc 013e dbbc 315b b5bb
000001c0: 60b8 00bd ae81 3abd e4ae 69bc 7158 2abd
000001d0: 0428 e5bc ba97 3cbd cacf 13bd 8ac0 2dbd
000001e0: d246 1cbb eeda 4fbd 0da8 08bd 1715 23bd
000001f0: 488e e5bb d637 dcbc 744c bdbc bb76 84bc
00000200: 1f21 19bd be85 7ebb ac22 65bd 6036 57bc
00000210: 4876 16bd 21f9 b3bc 330b 67bc fe56 75bd
00000220: f80c 803b b29a 1cbc b30b 35bd 60c1 0ebd
00000230: c6d6 e7bc e706 0abd 0544 32bd 8a93 90bb
00000240: 5c87 2ebd 8f5d 00bd 491f 03bd afe0 b0bc
00000250: 22fc 923b 1177 8cbc 16c3 11bc ee42 11bd
00000260: 8e01 34bd 6fbb d0bb 7cf3 4cbd dc90 8bbc
00000270: 3914 f6bc afe6 29bd c973 2bbd 01e7 19bc
00000280: 7bea 08bd 5f3e 29bc be30 e5bc ab14 80bc
00000290: 5230 17bd 106c b6bb 8ef2 d5bc 7a50 4fbd
000002a0: 4656 adbc e5ad 2cbc ffe9 233a 805b 4abd
000002b0: 8319 bbbc 293a ffbb a498 0ebd 804e 68bd
000002c0: 19ce 1ebd 2976 acbc 4910 443c 2684 76bc
000002d0: 0788 59bd 7b53 d0bc ae00 433c 9eb2 493c
000002e0: 01f4 723c 8122 08bd 872e 89bc 385c 60bc
000002f0: 5e84 14bd c748 8cbb 796e 43bd d265 cd3b
00000300: 8674 22ba 274a 0ebd 6b72 28bc e137 8abd
00000310: f440 33bb c1b8 30bb d17f b4bc ea3c 1abd
00000320: bf90 6bbd 4d24 8bbc 1c3b c43a e211 9c3b
00000330: 2edd 0dbc 4f32 88bd e1ea 6ebc 3bc1 3e39
00000340: 97b2 0bbd c230 c6bc 25cc 80bd c575 afbc
00000350: f4c5 0ab9 0771 50bc 0bd7 7a3c b2ec a3bd
00000360: 610a 2bbd 7917 63bc 9885 9cbc 2958 353a
00000370: e2ca e6bc 9e21 9c3b 857a b9bb dc25 e5bc
00000380: 315b 75bc a7b2 e3bc 36c8 00bd a140 05bd
00000390: f22d 5abd 3d50 74bb d024 823b ba27 4e3b
000003a0: 9591 06bd c7a4 abbc a717 24bd ade8 b8bc
000003b0: 7911 0ebd b83b 92bc cb4e 06bd 747f b6bc
000003c0: cb20 a93a 3071 82bc 3ef2 14bd 8c0b 96bc
000003d0: 7eb6 80bc 3043 e4bc 1147 68bd fbee 05bd
000003e0: 9134 d1bc bd48 8cbc 277d 173c 87b4 3cbc
000003f0: af68 34bd 1938 d3bc 1853 acbc 08f8 4e3c

hidden_neurons.bias f4 [64]
-0.051367633 -0.043435223 -0.056442697 -0.04539511 -0.06517526 -0.08698964 -0.06806022 -0.0865316
-0.0874283 -0.075878024 -0.067628115 -0.038438797 -0.08272329 -0.07535893 -0.036406044 -0.089114785
-0.044693418 -0.082248084 -0.068149514 -0.0667617 -0.0571844 0.025075682 -0.07241804 -0.047077015
-0.07054602 -0.043938693 0.045938734 0.010382046 -0.075205676 -0.058855407 -0.032865904 -0.0431522
-0.052509453 -0.07176542 -0.082110174 -0.08357123 -0.0812466 -0.059310764 -0.082000755 -0.072627455
-0.079491146 -0.061739802 -0.08112014 -0.047779378 -0.04632671 -0.059869047 0.06991 -0.070124894
-0.0797907 -0.056156013 -0.08458319 -0.07819137 -0.046252627 -0.058666322 -0.04795657 -0.05318176
-0.08172276 -0.05219704 -0.082760386 -0.06693974 -0.059553858 -0.08704544 -0.06807591 -0.06978726
00000000: de66 52bd 22e9 31bd 7530 67bd 39f0 39bd
00000010: 9b7a 85bd a027 b2bd 2863 8bbd 7b37 b1bd
00000020: 9c0d b3bd f065 9bbd 9c80 8abd 0072 1dbd
00000030: d46a a9bd c855 9abd 811e 15bd d081 b6bd
00000040: 7210 37bd af71 a8bd f991 8bbd 5cba 88bd
00000050: 303a 6abd 846b cd3c e94f 94bd d4d3 40bd
00000060: 6f7a 90bd 0ff9 33bd 412a 3c3d 7519 2a3c
00000070: 6f05 9abd 5e12 71bd 669e 06bd 5cc0 30bd
00000080: 2714 57bd c0f9 92bd 6129 a8bd 6527 abbd
00000090: 9e64 a6bd d8ef 72bd 03f0 a7bd b4bd 94bd
000000a0: 41cc a2bd e0e2 7cbd 5122 a6bd 4fb4 43bd
000000b0: 14c1 3dbd 3f39 75bd f92c 8f3d a49d 8fbd
000000c0: 4e69 a3bd d903 66bd f439 adbd cc22 a0bd
000000d0: 6573 3dbd 194c 70bd 1c6e 44bd 1ed5 59bd
000000e0: 435e a7bd 90cc 55bd 477e a9bd b417 89bd
000000f0: bfee 73bd e144 b2bd 626b 8bbd 9fec 8ebd

fc_out.weight f4 [10, 64]
-0.025039157 0.11771982 -1.199517e-05 0.0022037325 0.086427756 -0.07525488 0.052782968 0.008435725
0.05686106 0.10624623 -0.06847364 0.10611742 0.102883056 0.09524774 0.10301105 -0.0623996
-0.010056801 -0.021933664 0.09553808 -0.10109847 -0.036197484 -13.078564 -0.020276234 -0.053670682
-0.042087596 -0.05020908 -3.9926708 -0.78007615 0.019519554 -0.013187469 0.11770024 0.07217747
0.10897125 -0.10682902 0.035587937 -0.06718114 -0.121949606 0.10900299 0.10098284 0.0036027464
-0.110351935 -0.0021080766 0.08551966 -0.06902688 0.06867829 0.06393413 0.24272096 0.055741854
0.016374152 0.121685684 -0.033982698 -0.020298777 -0.09400299 -0.046539024 0.10715995 -0.078173906
-0.1011816 -0.058622945 -0.0010081955 0.059086535 0.055040855 0.021665985 0.11895912 0.037720595
-0.104162894 -0.0643235 -0.009565629 0.017558627 -0.11816028 -0.05658911 0.021408672 0.035817795
0.046043478 -0.0039151646 -0.12605858 0.011615166 0.016984452 -0.07374187 -0.06957983 -0.11759248
-0.052902255 0.049840413 -0.02972501 -0.114183865 -0.013448028 -11.992836 -0.06580062 -0.04900401
-0.089154586 0.038325746 4.895876 -11.711416 0.032532074 0.05072118 0.11048778 0.0021173512
0.005965258 0.0027675338 0.0023970846 0.04520657 0.084027775 0.011053818 -0.054446418 -0.042953745
-0.022353835 -0.121353574 -0.017082468 -0.017439844 -0.054072253 0.1447413 -8.043614 0.09097867
-0.009926433 -0.10986622 0.07149443 -0.10056902 -0.13017589 -0.07924465 0.11103858 0.10184101
0.053538915 0.02724735 -0.0056317365 -0.06701752 -0.09710047 0.0015737868 -0.07493375 -0.034498226
-0.059616506 -0.057506777 -0.1381583 0.0048099104 -0.11697242 -0.06054995 -0.10595473 -0.15412438
0.0018584523 -0.027475746 0.07141344 0.05407456 -0.16652067 0.021792782 -0.10594288 -0.17084984
0.025844492 0.021892833 0.08574892 0.028549423 -0.110225804 -15.153712 -0.0006290279 -0.13887213
-0.12717423 0.04777607 -4.0155115 3.385514 -0.13980345 0.0352533 -0.0026049155 0.009146728
0.06828245 -0.025465436 -0.09324598 -0.14961796 0.06220549 -0.04543766 0.074593976 -0.029241672
-0.08192896 -0.04567141 0.029559512 -0.030593822 0.006407466 -0.03208623 -11.431275 -0.009419737
-0.13412306 0.039052587 -0.12320888 -0.033447254 0.03620512 -0.022557365 -0.10838869 0.040617462
-0.1160832 -0.10709823 0.035829008 -0.11311411 -0.049773525 -0.04207472 -0.10698709 -0.061254453
-0.026276141 0.05900356 0.0853493 0.04972454 0.0004854091 -0.100744255 0.11737234 0.052237235
-0.053666774 -0.011741626 0.07453185 -0.008381776 -0.014140566 -0.032261476 -0.007330045 0.051199175
0.029449716 -0.06882655 0.071180314 -0.02133396 0.07018238 -7.246641 0.0057445867 0.0017511201
-0.115499295 0.07389949 -0.57491094 -9.501659 -0.11812063 0.12602358 -0.077976875 -0.042757902
0.013267406 0.08039996 -0.10779245 0.05697877 -0.011233805 0.05929992 0.091554075 0.0089135235
-0.09308277 -0.007326938 -0.07285545 -0.07450217 -0.05119775 0.060669318 6.2627134 0.10878107
-0.059712827 0.034169856 0.10909401 0.07853363 0.076871485 -0.013158651 0.012780349 -0.047793537
0.082016274 0.105547525 0.08889747 0.108745836 -0.0778048 -0.01654624 -0.04843241 0.06802741
00000000: eb1e cdbc 1717 f13d dd3e 49b7 7f6c 103b
00000010: 0901 b13d 3b1f 9abd f432 583d ff35 0a3c
00000020: 25e7 683d a097 d93d e83b 8cbd 1754 d93d
00000030: 5ab4 d23d 3f11 c33d 75f7 d23d b996 7fbd
00000040: 48c5 24bc 3aae b3bc 78a9 c33d b70c cfbd
00000050: d043 14bd cc41 51c1 581a a6bc cad5 5bbd
00000060: 0b64 2cbd 09a8 4dbd eb87 7fc0 12b3 47bf
00000070: 79e7 9f3c 4110 58bc d30c f13d c8d1 933d
00000080: 522c df3d 2cc9 dabd a8c4 113d 4496 89bd
00000090: b7c0 f9bd f63c df3d 17d0 ce3d 0e1c 6c3b
000000a0: 3200 e2bd a827 0abb ee24 af3d f75d 8dbd
000000b0: 34a7 8c3d e6ef 823d d88b 783e 9251 643d
000000c0: 1623 863c 5836 f93d 7131 0bbd 9f49 a6bc
000000d0: a484 c0bd b49f 3ebd ad76 db3d a419 a0bd
000000e0: 4c38 cfbd 9d1e 70bd 6d25 84ba b904 723d
000000f0: 8572 613d dd7c b13c d7a0 f33d e980 1a3d
00000100: 5b53 d5bd 0abc 83bd 28b9 1cbc 1cd7 8f3c
00000110: 04fe f1bd fcc9 67bd 3d61 af3c aeb5 123d
00000120: 1698 3c3d c84a 80bb 8015 01be 8a4d 3e3c
00000130: fa22 8b3c fa05 97bd df7f 8ebd 53d4 f0bd
00000140: 09b0 58bd 7625 4c3d dd81 f3bc 3bd9 e9bd
00000150: 1e55 5cbc a8e2 3fc1 7ac2 86bd 6eb8 48bd
00000160: ae96 b6bd 75fb 1c3d 04ab 9c40 f661 3bc1
00000170: 5a40 053d 03c1 4f3d 6b47 e23d 42c3 0a3b
00000180: 3678 c33b 835f 353b 6818 1d3b 862a 393d
00000190: c116 ac3d 131b 353c 3503 5fbd 44f0 2fbd
000001a0: 641f b7bc 3988 f8bd 88f0 8bbc 01de 8ebc
000001b0: de7a 5dbd 1037 143e a5b2 00c1 0653 ba3d
000001c0: 7aa2 22bc 8a01 e1bd ac6b 923d 21f7 cdbd
000001d0: d44c 05be 054b a2bd 3268 e33d 0592 d03d
000001e0: 9f4b 5b3d d635 df3c 6e8a b8bb 7b40 89bd
000001f0: 9cdc c6bd 8647 ce3a de76 99bd 034e 0dbd
00000200: 7030 74bd 3a8c 6bbd 5f79 0dbe 749c 9d3b
00000210: 3c8f efbd 3903 78bd cbfe d8bd c8d2 1dbe
00000220: 5097 f33a d114 e1bc 3641 923d 497d 5d3d
00000230: 6584 2abe c786 b23c 95f8 d8bd 43f3 2ebe
00000240: d4b7 d33c 9958 b33c 219d af3d 7be0 e93c
00000250: 11be e1bd 9b75 72c1 59e5 24ba 7f34 0ebe
00000260: f639 02be d7b0 433d 127f 80c0 43ac 5840
00000270: a328 0fbe c465 103d 3bb7 2abb 28dc 153c
00000280: abd7 8b3d e49c d0bc c0f7 bebd 7335 19be
00000290: 2fcb 7e3d d71c 3abd bac4 983d 3b8c efbc
000002a0: 5fca a7bd f211 3bbd ca26 f23c e59f fabc
000002b0: b8f5 d13b da6c 03bd 81e6 36c1 3e55 1abc
000002c0: 8e57 09be 9bf5 1f3d f054 fcbd fdff 08bd
000002d0: d24b 143d 39ca b8bc e4fa ddbd 7f5e 263d
000002e0: 07bd edbd 5156 dbbd 70c1 123d 5fa8 e7bd
000002f0: 53df 4bbd 8b56 2cbd 0c1c dbbd f3e5 7abd
00000300: 1041 d7bc b8ad 713d 9dcb ae3d f6ab 4b3d
00000310: 827e fe39 0153 cebd e960 f03d b6f6 553d
00000320: b1d1 5bbd f35f 40bc 28a4 983d b753 09bc
00000330: d5ad 67bc 9c24 04bd e030 f0bb 3ab6 513d
00000340: 8840 f13c eff4 8cbd fcc6 913d 8fc4 aebc
00000350: c8bb 8f3d 7ce4 e7c0 163d bc3b d785 e53a
00000360: e58a ecbd 9e58 973d 5d2d 13bf cc06 18c1
00000370: 3be9 f1bd 530c 013e 57b2 9fbd e922 2fbd
00000380: 895f 593c bca8 a43d 4ac2 dcbd 9262 693d
00000390: fe0d 38bc 79e4 723d b480 bb3d 070a 123c
000003a0: 2ea2 bebd d016 f0bb 3d35 95bd 9894 98bd
000003b0: bbb4 51bd 6480 783d 2668 c840 9cc8 de3d
000003c0: 7095 74bd b1f5 0b3d ae6c df3d 3dd6 a03d
000003d0: cc6e 9d3d 6297 57bc ab64 513c 28c3 43bd
000003e0: 26f8 a73d 4d29 d83d e00f b63d 23b6 de3d
000003f0: 1f58 9fbd fb8b 87bc 1061 46bd f451 8b3d

fc_out.bias f4 [10]
1.380316 2.6148934 -0.6705278 -3.3037145 -1.8621906 -0.1879994 -2.2575428 0.7980564
-0.45884198 0.5121483
00000000: 32ae b03f 6a5a 2740 b6a7 2bbf 0f70 53c0
00000010: 435c eebf ea82 40be 957b 10c0 6d4d 4c3f
00000020: 56ed eabe 271c 033f
